model_fine_tuned.pth (torch, 67268 bytes, 20 tensors)

weight f4 [128, 22]
00000000: 3b4a 2d3b 0285 d13c b57e 7e3e b1a0 90bd
00000010: 8263 fc3d 3f5a 793d 5d91 8b3d 14c9 183d
00000020: 723a 40be aefa 3b3d 50ac 133e 416c a73e
00000030: 8b02 37be c8a3 cd3d ff5e 0ebd f075 683d
00000040: f158 b33d 04e0 2f3e 60a1 283e d603 323e
00000050: 8d9d 263e a65c 53bd 8eb3 ed3d cf0e 0b3e
00000060: 4b32 033e 927b 25be 4a64 85be b5f1 5dbd
00000070: 9b07 e1bc 576a 00be 1129 113e e0c8 b1bc
00000080: f65f cbbd 3236 69be 4c25 223d b3b1 603e
00000090: a04d 333e f0c5 2fbd 27c1 ccbc 5875 b23d
000000a0: 2eb6 3f3d e967 4e3d db9b dd3d 0851 163d
000000b0: 925d d3bd 8404 6a3d 5165 05be f58a 633e
000000c0: 4665 02be 08db 0fbe d0db 61bb 9190 233d
000000d0: 0da3 6b3d 7a3b e1bd e952 283d 2c05 93be
000000e0: fc6b 22be 474b 643e 2256 003e f33a bebd
000000f0: f8d9 a7bb 96d3 7abd 46b2 36be af37 43bd
00000100: 4ae2 9b3e b11e 26be 1d6c 463e 6c60 49bd
00000110: 9c21 893e 7b5f 0dbd 1b03 6cbd ce2a 1d3e
00000120: ce46 9a3c 480a 8b3d b29f 3bbe da8f d6bc
00000130: 4633 8a3b f9b1 473d bec9 c837 3bda b0ba
00000140: 91e2 aabd 9be3 a93c 8eec a6bd dad7 11bd
00000150: fd67 7c3e db7e b83b ec15 32bd b596 083e
00000160: e3cd 2bbe 38ec b5bd b9af 0bbd 55fd 30be
00000170: 1ffb ed3d 686d 61be eeb1 e0bc 7f54 f7bd
00000180: 822a 0e3e 747a aebd aea7 2fbd 3f61 d8ba
00000190: 2af5 d5bb f39d 253d fa69 5fbe 55a7 663e
000001a0: d895 553e dd8e 933a 1b2e f03c bd53 89be
000001b0: 5a8b 1d3e 20e4 ac3c 71a7 c33d 3044 553e
000001c0: 7d4c 0c3e 276b f93d 4637 86bd c7a6 5abc
000001d0: b181 c63d 589c 763d b974 223e bcd4 773e
000001e0: 323a 143d 286c dc3d b4e3 6bbe daeb 2f3d
000001f0: f704 313e 5939 31bc 3b25 04be 10fc 2d3e
00000200: 2593 8dbe 8b57 8e3d 8446 003e d5af 82be
00000210: 5ad6 bf3d 07ea e9bd 4ef0 94bd 2c38 643d
00000220: 0639 23be 4121 59be f5ff 663d 7615 6a3d
00000230: e462 683d 7f0a 81bd 077f 88bc 724b 033d
00000240: 4f60 98bd daa9 1abe 5dc7 78be a4a5 233e
00000250: 21a1 b9bd 8795 04be 9692 923d 1ddd e13c
00000260: 005c 58bb d206 c0bc 517c 8b3d b456 09be
00000270: e572 86be e612 073e 8ca9 c63c 4101 c83d
00000280: 546a 82be 0c0e bf3d 5b7b 77bd caa6 f2bd
00000290: dc97 aa3d 676d 88be 5a5e 0cbe 7c5e aebd
000002a0: a2e9 bdbd d267 83be b85a 16be 028b 99bd
000002b0: 8439 833d 1c6e 5cbd 9ecc 06be c05b dcbc
000002c0: 17ac a53c 18a0 453d d6dc 70bd a208 87bc
000002d0: 1c76 c93d b2d6 143e ca69 62bd 7d5f 6b3d
000002e0: 26bf 44bc 2fd9 4d3e 976a efbc 59b9 873c
000002f0: f2d6 493d 186e a5bc bb9e 18be 59f2 87bd
00000300: 44fd aabd ae9c 8d3d 9036 153e 81e0 e53c
00000310: 4431 9dbe 631b 763e bdd0 853d 5593 0dbe
00000320: 793c 173e 248d f03d c5d3 263e 881e 3c3e
00000330: 6c89 d63d 67bc 44be 70d4 acbb 7d2a 10be
00000340: c108 08be d971 b23b 282c 073d 07f6 e9bd
00000350: 938f 0f3e d3f9 353e d779 72bd ebd4 a63d
00000360: 99e4 273d 7361 8c3d 198c 51be e572 a63b
00000370: e96e af3d 887a 6bbe ee3e 013d 4dc2 bb3d
00000380: 9379 dabd d045 f5bd 4e28 a9bc 871e 8e3d
00000390: 5f72 923d 9239 f73d 9621 213e cb2d 9bbe
000003a0: 48fe 5a3d 0622 87bc 75d9 013d d192 53bd
000003b0: 3e33 5abe 028a 3c3d 9a58 1f3c 421a ac3d
000003c0: 7e21 f9bd f249 57be ab4a b9bd 4b86 31be
000003d0: 7459 b7bc 96df 2f3d 5003 edbd 4aa9 0e3e
000003e0: fe56 ac3c 3362 b9bc f723 9d3d 9046 a33d
000003f0: 942f d3be 4984 193e f293 25be 0658 5c3e
0.002644195 0.025576118 0.24853022 -0.070618995 0.12323667 0.06087708 0.06814835 0.037301138
-0.18772295 0.045893364 0.14421201 0.3269978 -0.17872064 0.100410044 -0.034758564 0.0567531
0.087571986 0.17175299 0.1646781 0.17384276 0.16271038 -0.05160203 0.11606513 0.13579868
0.12812154 -0.1616042 -0.26053077 -0.054185588 -0.027469447 -0.12540565 0.14175822 -0.02170223
-0.099304125 -0.2277458 0.03958635 0.21942787 0.1751008 -0.042913377 -0.024994446 0.08713788
0.0468046 0.050392065 0.10820743 0.03669837 -0.103205815 0.057133213 -0.1302693 0.22220977
-0.12733945 -0.14048398 -0.0034463294 0.03993279 0.057528544 -0.109976724 0.041094694 -0.28714883
-0.15861505 0.22294341 0.12532857 -0.092885874 -0.0051224194 -0.06123694 -0.17841443 -0.047660526
0.30446082 -0.16222645 0.1937718 -0.04916422 0.26783454 -0.034514885 -0.05762015 0.1534836
0.01883259 0.0678907 -0.18322638 -0.02619164 0.004217538 0.048753712 2.3935801e-05 -0.0013492772
-0.08343995 0.020738414 -0.08150588 -0.035606243 0.24649043 0.0056303567 -0.043477938 0.1333874
-0.16777758 -0.08882946 -0.03410313 -0.17284139 0.11620163 -0.22014391 -0.027428593 -0.12076663
0.13883403 -0.0851945 -0.04288452 -0.0016508474 -0.00652947 0.040433835 -0.2181777 0.2252477
0.20857942 0.0011257787 0.02931886 -0.268217 0.1538519 0.021104872 0.09553421 0.20826793
0.13701053 0.12178641 -0.06553511 -0.013345427 0.096927054 0.060207695 0.15864839 0.24202245
0.036188312 0.10762817 -0.2303608 0.042949535 0.1728705 -0.010816895 -0.12904827 0.16990685
-0.27651325 0.06950291 0.125269 -0.25524774 0.09367056 -0.1142159 -0.07272397 0.055717632
-0.15939721 -0.21204092 0.056396443 0.057149373 0.056734934 -0.0630083 -0.016662134 0.032054372
-0.074402444 -0.15103856 -0.24294801 0.15981156 -0.09063936 -0.12947665 0.07156865 0.027571255
-0.003301382 -0.023440752 0.06810821 -0.13411981 -0.26259533 0.13190803 0.024250768 0.09765864
-0.25471747 0.09328851 -0.060420375 -0.11848219 0.08329746 -0.26645967 -0.13707867 -0.08514115
-0.092730775 -0.25665146 -0.14683044 -0.07497217 0.064074546 -0.053815946 -0.13163993 -0.026899219
0.02022366 0.04824838 -0.058804356 -0.016483609 0.09836981 0.14535025 -0.05527667 0.05746411
-0.012008464 0.2010238 -0.02922563 0.016567873 0.049277253 -0.020194098 -0.14904301 -0.06638021
-0.08349088 0.0691465 0.14571595 0.028061153 -0.3070165 0.24033885 0.06533954 -0.13825734
0.14769162 0.117456704 0.16291721 0.18371022 0.1047543 -0.19212495 -0.005274348 -0.14078708
-0.1328459 0.0054457006 0.033001095 -0.11423879 0.14019613 0.17771082 -0.059198227 0.0814608
0.040989492 0.068545245 -0.204636 0.0050796145 0.08566076 -0.2299596 0.031554155 0.09167919
-0.1066772 -0.11976206 -0.020649102 0.069394164 0.07150721 0.120715275 0.15735468 -0.30308375
0.053465158 -0.016495716 0.031701524 -0.051653687 -0.2130861 0.046030052 0.009725714 0.08403446
-0.12164591 -0.21024302 -0.09047445 -0.17336385 -0.022381522 0.042937838 -0.115728974 0.13931766
0.021037575 -0.022629833 0.076728754 0.07972443 -0.41247237 0.14991869 -0.16169718 0.21517953

bias f4 [128]
00000000: 5de5 fb3d c42b 493e 0449 293e fccb 023e
00000010: f8c2 84bd f0a0 793d 8b28 d93d 0e5f fe3c
00000020: 0a61 1b3e 66ea 25bd 7372 3b3e 20ab 0d3c
00000030: 8d8a f8bc 8011 3c3d 9a63 28be c8fe 2cbe
00000040: 0705 683d a520 01bd b80d 84bd b683 c63d
00000050: 36f2 3b3e 75b7 413e cc4a 3ebe f829 9d3c
00000060: fe8c 50be 21ac 5c3d 2c75 e3bd 7e92 e5bd
00000070: 1663 1f3d 1b02 c8bd dbcf 44be 2e6c e83d
00000080: 98a0 6abd e56c f9bc 56af 4c3e 20bd 3f3e
00000090: 3187 c0bd 23ec d13c 129e cd3d 8af0 53be
000000a0: 663c 543d a197 093d 15d2 1f3e c561 4a3e
000000b0: 3b9c 8d3d 291d 15be e3d8 4bbe fe21 183e
000000c0: 7d5b bc3d a801 c03d f0df 2f3d a668 d8bc
000000d0: 4a17 03be d505 bbbd e49e 023e c2d9 fbb7
000000e0: 2774 f73d 174e 403e 73a8 e83d 299c bcbc
000000f0: 9853 183e d16c 58be 2324 103e 6a1b 5bbd
00000100: edde abbc 02fc 1cbe 6b16 2e3e 1d13 c03d
00000110: 4073 b6bc 4f0c 3f3d cac9 75bd be3b a7bd
00000120: 4de9 203e 9a14 90bd 2eed 94bd 1afd 10be
00000130: 1f2d eb3c 7a20 7f3d c683 03be 35a6 39be
00000140: 64a4 f53d 23e7 f93d 9be5 b03d 85d6 853d
00000150: 0337 323e b128 08be c32e f9bd b028 c9bd
00000160: 6fc0 fb3d 89bd 0e3e 06b4 133d 441f 47be
00000170: 4a87 fa3d aec6 46be 71b7 efba fa9e f5bd
00000180: 5d9f 12be 0377 2abe 1899 b6bd 88ce acbd
00000190: 9dac c33d afef 233e c9a3 4cbe 25cd c2bc
000001a0: 74f2 0dbe 59bb 2cbc 99fe 053d a59d deba
000001b0: 8d75 a4bd eb11 9cbd 9753 41be 3ec1 dabd
000001c0: aa05 2ebe 41b8 733d 7b92 81bd d156 3c3e
000001d0: c4a9 0dbd 393d 93bd ca8d 2b3c 6061 e0bd
000001e0: 2479 a13d 4511 8cbd 66d1 4f3e 7d76 0fbd
000001f0: 2502 963d 7800 e53c 3544 babd 4508 ec3d
0.12299607 0.19645602 0.1653176 0.12773126 -0.064825 0.060944498 0.10603436 0.031051185
0.15173736 -0.040506743 0.18305378 0.008646756 -0.030339504 0.045915127 -0.16444245 -0.16894066
0.05664542 -0.031525273 -0.06447929 0.096930906 0.18354115 0.1891764 -0.1858322 0.019185051
-0.20366284 0.053875092 -0.11106333 -0.11209582 0.038912855 -0.097660266 -0.19219916 0.11348759
-0.05728206 -0.030447433 0.1998876 0.18724489 -0.09400786 0.025625294 0.10039915 -0.20697227
0.051815413 0.03359187 0.15607484 0.19763859 0.06914564 -0.14561905 -0.19906954 0.14856717
0.091971375 0.09375316 0.042938173 -0.026417088 -0.12801853 -0.09131972 0.12755924 -3.0022933e-05
0.12082701 0.18779789 0.11360254 -0.023023682 0.14875638 -0.2113526 0.14076285 -0.05349294
-0.020980323 -0.15330508 0.1700074 0.093786456 -0.022271752 0.046642598 -0.060006894 -0.08165692
0.15713997 -0.070351794 -0.07271801 -0.1415905 0.028708039 0.06228683 -0.12843236 -0.18129809
0.11994246 0.12202289 0.08637544 0.06535057 0.17403798 -0.13296773 -0.12167122 -0.09822214
0.12292563 0.1393949 0.036060356 -0.1944552 0.122328356 -0.19411728 -0.0018288923 -0.11993213
-0.14318605 -0.16646962 -0.08915919 -0.0843783 0.09554408 0.16009401 -0.19984354 -0.023779461
-0.1386202 -0.010542714 0.032713506 -0.0016984238 -0.080302335 -0.07620605 -0.18879543 -0.10681389
-0.16994348 0.05950189 -0.06326767 0.18392493 -0.03458573 -0.07189412 0.010470817 -0.10956073
0.07884434 -0.068392314 0.20294723 -0.03502511 0.07324628 0.027954325 -0.09095041 0.11525015

weight f4 [128]
00000000: 95ef 793f 120f 7b3f 4df7 7f3f 046f 6e3f
00000010: 53d2 843f 644b 7a3f 6175 7f3f ce78 733f
00000020: 65f1 773f 15cf 6a3f 9879 6d3f 7793 713f
00000030: 20a5 723f 1613 733f 5434 6f3f e258 6a3f
00000040: 2ca4 6a3f 1fda 793f 9574 773f fd46 6c3f
00000050: 4b27 753f d364 6a3f f3c0 783f f597 753f
00000060: cf9d 813f 7a2e 743f af71 743f 1e7e 7d3f
00000070: 6dfe 733f e733 773f 314b 6c3f 8eb1 773f
00000080: 1697 743f 7ed5 813f 994a 6e3f dde2 813f
00000090: 5570 723f 8554 823f c168 723f 5028 7d3f
000000a0: 87ff 813f 0c09 753f c24b 7a3f 66df 6b3f
000000b0: 1a39 7f3f a8ac 763f 74a6 7a3f 1726 833f
000000c0: b4a8 813f 6426 6c3f 34ff 6d3f ec94 723f
000000d0: c9af 6e3f 2d0f 7f3f ebb0 783f d5f3 713f
000000e0: 8583 7e3f 0499 843f c4b7 773f 7d32 783f
000000f0: 37d4 6c3f a527 733f d002 863f dc72 7b3f
00000100: 7311 7d3f e3a9 773f 006c 723f 2779 783f
00000110: 91dd 773f 9afa 6b3f 5e13 6a3f 7f83 733f
00000120: a3d6 803f 0015 863f ab98 6a3f 9ab0 783f
00000130: e897 723f a385 773f 84ed 753f 5fa7 743f
00000140: bd9a 713f 0afd 733f a1ff 673f 414f 693f
00000150: 3295 823f 6c2f 643f 34a8 6f3f 0e95 7d3f
00000160: 97a3 723f 0863 723f fa7c 7f3f c4f2 7c3f
00000170: 0948 853f ea3d 7a3f 6c99 643f 2df5 6c3f
00000180: d014 743f 473d 7a3f f3e4 763f a05d 823f
00000190: 7eba 713f cd08 6b3f e85d 6f3f b6b9 643f
000001a0: 0e97 6d3f 07b7 713f a0cf 6b3f a143 6e3f
000001b0: 6274 623f b5be 743f bc92 753f f699 753f
000001c0: dee2 8a3f 4640 703f 9376 743f 4954 693f
000001d0: 583a 7a3f ac32 803f b900 803f 6552 723f
000001e0: f3c2 833f d212 683f d73e 6d3f e40d 753f
000001f0: 97fc 703f b61b 783f 66e9 7d3f f72f 713f
0.976312 0.9806987 0.99986726 0.93138146 1.0376686 0.97771287 0.9978848 0.9510621
0.96852714 0.9172223 0.9276366 0.9436564 0.9478321 0.94951 0.9343922 0.91541874
0.91656756 0.9759845 0.96662265 0.9229582 0.9576308 0.91560096 0.9716942 0.95934993
1.0126284 0.9538342 0.9548597 0.99020565 0.953101 0.9656357 0.92302233 0.967553
0.9554304 1.0143278 0.93082577 1.0147358 0.94702655 1.0182043 0.9469109 0.98889637
1.0156106 0.9571693 0.9777185 0.92137754 0.99696505 0.963572 0.9791024 1.0245999
1.0129609 0.9224608 0.92967534 0.94758487 0.93236977 0.9963253 0.97144955 0.94512683
0.9941943 1.0359197 0.9676478 0.9695204 0.92511314 0.9498237 1.0469608 0.98222136
0.9885475 0.967436 0.94696045 0.97059864 0.9682246 0.9217926 0.914358 0.9512252
1.0065502 1.0475159 0.916392 0.9714447 0.9476304 0.9668829 0.96065545 0.9556789
0.94376737 0.9530798 0.90624434 0.91136557 1.0201781 0.8913486 0.9361603 0.99055564
0.9478087 0.9468236 0.99800074 0.9880793 1.0412608 0.97750723 0.89296603 0.9256161
0.9534426 0.9774975 0.964431 1.0184822 0.9442519 0.91810304 0.93502665 0.8934587
0.92808616 0.944199 0.92113686 0.93071944 0.88458836 0.95603496 0.95927024 0.9593805
1.0850484 0.93848073 0.9549343 0.91144234 0.97745275 1.0015464 1.000022 0.94656974
1.0293869 0.9065372 0.9267401 0.9572432 0.9413542 0.96917284 0.9918426 0.94213814

bias f4 [128]
00000000: f953 86be 78fe 94be 42da 76be 6700 7bbe
00000010: eb49 05be 541b 55be ca49 78be be5f 1cbe
00000020: 4de7 aebe 7988 1abd 4599 edbd cf0b 7dbe
00000030: 2472 77be b3b3 4fbe 58ad 6dbe eaa2 ffbd
00000040: 2e7d 56be d5fa 19be 5ea4 97be 9643 27be
00000050: 6149 96be ef43 20be b7fa 7fbe 2975 a4bd
00000060: 2d6a 48be cce8 90be 115b 65be e2f1 fbbd
00000070: 2a2b 72be 1526 bcbd 9c19 aabe cd8c 9dbe
00000080: a77b d0bd f4e4 3fbe ef3c 82be 84e1 89be
00000090: 1d67 68be 041d 9bbe 6ebf 9cbe 1fe9 71be
000000a0: eeab 8ebe d090 02be af67 65be e759 a8bd
000000b0: eae4 5dbe 7b64 96be 7de3 3cbe 4a23 9abe
000000c0: 145d 90be b2ab 81be 459d 3bbe 8520 3cbe
000000d0: 804d 76be 8222 48be 34b7 1abe 0a2e 3bbe
000000e0: e212 7fbe aff8 8cbd 941c 75be fae0 49be
000000f0: 1827 54be 32a6 6dbe 3c39 83be 4f87 87be
00000100: 4a7b 75be dfcb 91be d4da a7be 9a69 72be
00000110: e814 2dbe 7a0a 45be c169 1fbe e6bf adbe
00000120: 84a0 5cbe 0bb7 46be eafd 69be 45e9 d8bd
00000130: f38b 80be 3f95 a5be 5407 9ebe dbbe 37be
00000140: b0b6 55be 8ff5 86be ca66 39be abd2 5ebe
00000150: cebc 5fbe a121 a5be b83e 9bbe 3da4 2ebe
00000160: c8c0 61be b1e3 64be 3332 70be ffc3 7fbe
00000170: eed8 4fbe fc7a 76be 14aa 94be 7bf4 a2be
00000180: 403d bbbd df31 5bbe cbec 84be 6d41 49be
00000190: 767d bbbe 80d5 9abd 849a 08be 9155 81be
000001a0: 761c 2cbe dbec 3ebe bbff 36be c279 58be
000001b0: b6b6 89be 134f 24be 348d 36be e55f 29bd
000001c0: 7306 6dbe a89b 80be f644 80be 7cd1 33be
000001d0: a182 94be a786 36be a733 88be 690f 84be
000001e0: 3805 99be b95c 64be 3ea5 c8bd 125e 7ebe
000001f0: 590d 3fbe 4c84 77be a2ec 32be 59aa 1dbe
-0.2623594 -0.29100394 -0.24106696 -0.24511872 -0.13016479 -0.20811206 -0.24246898 -0.15270898
-0.34160843 -0.037727807 -0.116014995 -0.24711536 -0.24164635 -0.20283394 -0.23210657 -0.12482245
-0.2094619 -0.15037091 -0.2961759 -0.16334376 -0.2935286 -0.15650915 -0.24997984 -0.08030159
-0.19571753 -0.2830261 -0.2239802 -0.12301995 -0.23649278 -0.09186951 -0.33222663 -0.30771485
-0.10179835 -0.18739682 -0.25437114 -0.26929867 -0.22695585 -0.30295575 -0.306148 -0.23624085
-0.27865547 -0.12750554 -0.22402833 -0.082202725 -0.21669355 -0.29373536 -0.18446155 -0.30105048
-0.28196013 -0.25326306 -0.18321712 -0.1837178 -0.24053001 -0.19544414 -0.15108949 -0.18279281
-0.24909547 -0.0688337 -0.23936683 -0.19714728 -0.20718038 -0.2320793 -0.25629604 -0.2647042
-0.23972812 -0.28475854 -0.3278414 -0.23673096 -0.16902506 -0.19242278 -0.15567686 -0.3393547
-0.21545607 -0.19405763 -0.22850767 -0.10591368 -0.25106773 -0.32340428 -0.30864966 -0.179439
-0.20870471 -0.2635922 -0.18105617 -0.21760051 -0.21849367 -0.3225222 -0.30321288 -0.1705484
-0.22046196 -0.22352482 -0.2345665 -0.2497711 -0.20297596 -0.24070352 -0.2903601 -0.3182715
-0.09142542 -0.21405743 -0.2596191 -0.19653864 -0.36619157 -0.07560253 -0.13340193 -0.25260594
-0.16807732 -0.1864504 -0.17870991 -0.21140197 -0.2689721 -0.1604579 -0.17827302 -0.041351218
-0.23146991 -0.25118756 -0.25052613 -0.1756038 -0.29005912 -0.17824803 -0.26601908 -0.25793007
-0.29886794 -0.22300996 -0.097971424 -0.24840572 -0.18657435 -0.24171561 -0.17473081 -0.15397014

running_mean f4 [128]
00000000: 74d4 5f3e a043 593e c0b1 fa3d 685d 103e
00000010: a080 90bd b5ea 723d 487e 963d ee07 76bd
00000020: b882 173e e3e6 d6bc 87cf 1f3e 7931 93bd
00000030: 92d5 a1bd ccf6 803d 5b60 febd c9cb bebd
00000040: c16c e83d 1c4b 2cbc 9fa0 44bd 982a 533d
00000050: e8a0 3b3e 0275 103e 12fc bdbd d9be f83c
00000060: ecb1 68be 1960 2e3d f591 dbbd fac7 28be
00000070: cd45 873d 3c7d a6bd 56d6 3ebe f0f6 df3c
00000080: 2ca3 84bd cd0e d1bc 5e77 473e f6ea 4a3e
00000090: 0cdc 99bd 6f14 323c 33fd e53c 1ace 76be
000000a0: a01e ab3d f28a c23d c31e e83d d256 3d3e
000000b0: 601e 25bd 300b 15be 6018 81be 15c5 433e
000000c0: 57c6 103e 652d 3b3e d517 9e3c c2af 8fbd
000000d0: 4fc8 1dbe 602d 7dbd 8f71 4d3e 69aa 223d
000000e0: 26d4 d13d 68f0 613e 93c8 eb3d 7829 cabc
000000f0: 460a 213e e718 5abe dab1 003e 6253 16bd
00000100: 4031 953b 4cfc 17be cf4e 383e 1edc 0b3e
00000110: faf7 8dbd 5823 81b9 b25d e93a 04e1 88bd
00000120: 77a2 283e 1cdc 6dbd 5ca9 37bd 5645 3fbe
00000130: 6421 0c3d cc56 963d 9a3f 02be 4936 5bbe
00000140: a9df 513d abda a63d e3e4 003e 49a0 ac3d
00000150: 5697 293e 267e 33be ad11 0ebe 5465 65bd
00000160: 54a9 143e 3199 1b3e ce7a a13d a60c 0ebe
00000170: 54c8 b33d 78b0 33be 2031 a73d 4095 1cbe
00000180: 9b98 6ebd 114b 14be bb2a 1dbe e1e1 c9bd
00000190: f5ac c53d e988 1b3e 88c7 3bbe 0d5b 28bb
000001a0: e4b1 e8bd d3bc 823c 4925 66bc de4a c3bd
000001b0: 0c77 62bd f476 87bd d26d 5dbe 5b36 05be
000001c0: 09dd f0bd 7dbd 393d 2cba dfbd 114d 363e
000001d0: 59e9 4dbd dc9e 9fbd 25f0 043b 08ba 29be
000001e0: a0fd ca3d 8c28 1abd 324b 263e 12e2 8bbd
000001f0: 9112 c23d 6239 5ebd a273 c2bd 4059 f63d
0.21858388 0.21217203 0.12240934 0.14098132 -0.07055783 0.059305865 0.07348305 -0.060066156
0.14795959 -0.026233142 0.15606509 -0.071871705 -0.079020634 0.06297073 -0.12420722 -0.09316213
0.11348868 -0.010515954 -0.048004743 0.051554292 0.183231 0.14107135 -0.09276594 0.03036444
-0.22724122 0.042572115 -0.107211985 -0.16482535 0.0660511 -0.08129355 -0.1863645 0.027339429
-0.06476435 -0.025519753 0.19479129 0.19816193 -0.07512674 0.01086913 0.028074836 -0.24102059
0.08355451 0.09499158 0.11333992 0.1849015 -0.04031217 -0.14555049 -0.2521391 0.1911815
0.1413816 0.18279035 0.019298473 -0.07015945 -0.15408443 -0.06181085 0.2006285 0.039713297
0.10245542 0.22064364 0.11512866 -0.024677977 0.15726575 -0.21298562 0.12567845 -0.036700614
0.00455299 -0.14842337 0.17998813 0.13658187 -0.069320634 -0.0002463113 0.0017804413 -0.06683543
0.16468225 -0.05807124 -0.044839248 -0.18678793 0.03421153 0.07340774 -0.12719575 -0.21407427
0.05123869 0.08147176 0.12587313 0.084290095 0.16561636 -0.1752859 -0.1387393 -0.056004837
0.14517719 0.15195157 0.07884751 -0.13872012 0.08778444 -0.17547786 0.08163667 -0.1529131
-0.058251005 -0.1448176 -0.15348332 -0.09857536 0.096521296 0.15188946 -0.18337834 -0.0025689036
-0.11362055 0.015959179 -0.014046975 -0.09535764 -0.055289313 -0.066144854 -0.21623924 -0.13009016
-0.11760909 0.045346726 -0.10924181 0.17802836 -0.050271366 -0.07793972 0.002028474 -0.16574872
0.099116564 -0.037636325 0.16239622 -0.06830229 0.094761975 -0.054253943 -0.094947115 0.12028742

running_var f4 [128]
00000000: 6c2b 033e 182d 113e e8b6 f93d 798a 103e
00000010: 394d f43d 88b7 1c3e a697 043e c059 1a3e
00000020: d8ef bf3d e4d5 a33e ec6f 263e 1090 f13d
00000030: 8f6e 6c3e 0dc2 f53d 82df 783e 9e81 b83e
00000040: cde6 113e 21b7 e83d 1e26 d13d fe0c 423e
00000050: 31dc 8d3d adf8 503e 0edb ba3d d576 e33d
00000060: c900 083e 3b54 113e b01f 703e 0626 963d
00000070: f699 233e 8abe 163e f242 283e 8c9e 073e
00000080: 3a61 1f3e ca85 c23d 96eb 223e 36a4 6c3e
00000090: d040 0c3e 88b2 763e 294c ad3d 6049 913e
000000a0: bd7f 803d 3383 793d 05a0 273e 02b3 1a3e
000000b0: 9878 c23d 09f8 213e 6a1b e03d 78cb cd3d
000000c0: 40ab f03d 8e2f f23d f362 5b3e 59b9 1e3e
000000d0: 0d52 623e caf4 123e ca5a 9a3d 1620 ea3d
000000e0: 94e5 6c3e 162b a03d 755b 0d3e 6d8e 0b3e
000000f0: afd9 b73e 0a29 3a3e c892 953d 2285 103e
00000100: 0f8d 103e 7c0e ac3d 4d9f ad3d c8ca b83d
00000110: 44fb 933d bcc6 723d 6205 423e 8085 363e
00000120: 1a1c 6b3e f0ef 0a3e e05c c43d e435 1e3e
00000130: 9076 f33d 8424 d53d d072 d63d d318 0b3e
00000140: aa4a 223e c658 9d3d 0f9d 173e 7043 bf3d
00000150: 2078 503e 7b8c 023e ff4e 063e 606d 043e
00000160: 495a 3f3e 5098 ce3e cd60 fd3d c1b4 853e
00000170: 7c53 163e 0215 1c3e c459 033e 0db4 6b3e
00000180: dd33 7b3d 9ceb da3d a2a5 2c3e e9c5 d33d
00000190: be59 b53d 601c 0a3e 395b 653e 7256 263e
000001a0: addc f93d 7912 873d 0387 353e f806 303e
000001b0: 5528 053e 912f 023e 79f2 373e cc4b 0d3e
000001c0: 2e31 953d dce4 f23d 923c b63d e8f8 013e
000001d0: 2e60 0c3e 7a5b 4b3e 9030 433e 542a f13d
000001e0: e42a a93d 43dc 123e a5a2 493e b4c8 f33d
000001f0: 9f09 1b3e 42f2 cb3d cca9 933d 8ed7 0e3e
0.12809533 0.14177358 0.1219309 0.14115323 0.119287916 0.15304387 0.12948474 0.150733
0.093719184 0.31999123 0.16253632 0.11795056 0.2308905 0.11999903 0.24304011 0.3603639
0.142482 0.11363054 0.102123484 0.18950269 0.06926764 0.20407362 0.091238126 0.1110665
0.1328155 0.14192288 0.23449588 0.07331471 0.159767 0.14721122 0.16431788 0.13244075
0.15564433 0.094981745 0.15910181 0.23109517 0.13696599 0.24091542 0.08461792 0.28376293
0.06274364 0.060916137 0.16369636 0.15107349 0.09495658 0.15817274 0.10942729 0.10048574
0.11751413 0.118254766 0.21424465 0.15500392 0.22101612 0.14351192 0.07536848 0.11431901
0.23134452 0.07820718 0.1380442 0.1362855 0.35908267 0.18179718 0.07303387 0.14113286
0.1411631 0.084012 0.0847765 0.090230525 0.072256595 0.05927156 0.18947366 0.17824364
0.22959939 0.13568091 0.09588027 0.15450245 0.118878484 0.104073554 0.104711175 0.13583688
0.15848795 0.07682948 0.14806007 0.093390346 0.20358324 0.12748902 0.13116072 0.12932348
0.18686785 0.4035058 0.12371979 0.26114467 0.14680284 0.15242389 0.12827212 0.23017903
0.061328758 0.1068947 0.16860059 0.10340483 0.088550076 0.13487387 0.2239808 0.16243914
0.12200294 0.0659532 0.17727284 0.17190158 0.13003667 0.12713458 0.1796359 0.13798445
0.07284771 0.11860058 0.088982716 0.12692606 0.13708565 0.19859114 0.19061494 0.117756516
0.08260134 0.14341836 0.1969095 0.119035155 0.15140389 0.099583164 0.072101206 0.13949415

weight f4 [64, 128]
00000000: bd1d 293d 0d7d a9bd 6315 7d3c d08a 0abd
00000010: 115b 58bc 09cb 6ebd 643b a43d 8a11 b238
00000020: d93a 8abd 38bb 323d 6f1c acbc 5ba5 a9bc
00000030: b04d 003d 7c56 a4bd 182d 59bd 3950 333b
00000040: b6e4 ef3c 6c0e 37bd 0879 393d 884f 85bc
00000050: 5904 333d 658f 6bbc ba9f c0bd 10db e4bc
00000060: de42 9c3d 3914 843c e881 70ba de1b 5bbc
00000070: 1cde 96bc 38d9 613c 9d0f a0bc a91b 673d
00000080: 4803 113e c4ea 013d 2fbf 82bc 87ba 573d
00000090: 6646 103d edbd 38bc 4cff b03d adc3 9d3d
000000a0: 7def b4bc e484 973d e637 bd3b ddd0 03bd
000000b0: 81f2 203d f8a1 03be 4ef8 0cbc c444 333d
000000c0: b756 21bd cb32 d13c 27a8 eabc c545 42bc
000000d0: 6e05 4abc 440d 6bbd 3345 903d 0958 313a
000000e0: 7596 61bd 16f9 6d3c d33a fc3c c705 09be
000000f0: 5e3a 06bc 74d0 22bc 6188 47be 06e5 8fbd
00000100: 02e0 073d 4b0d 54bd ab6f 91bd c09d 513d
00000110: 48e8 cbbc c1bf adbd 94a9 063d cd77 a3bd
00000120: f0c7 2e3d 97f0 48bd 6193 ea3b b69e 03bd
00000130: 15c1 c7bd 4137 933d ae90 05bd e5a7 11bd
00000140: 15b0 f4bc 6340 643d 5d08 453c 032b 803c
00000150: 7b94 9ebc fafe cbbb 91ef adbd 75d3 1bbc
00000160: c347 fd3c a86b f8bd 93c4 ecba db08 91bd
00000170: df6a a3bd a774 5fbd ed5a 113d a18d b5bd
00000180: fe45 6238 f2d1 6e3d a557 b83d 58f0 09be
00000190: aebe 51bd 321b 3bbc 2b2c 923c f4d0 0a3d
000001a0: 3bd4 8cbc 8aae 8e3c cac4 623c 4246 cb3c
000001b0: aabb 193c 0bdc 343c 8196 0d3c fa08 133d
000001c0: 6879 58bc 7a90 883d 3bd9 36bd ee6c ab3d
000001d0: 0fe4 dfbc 43e9 05bd e4bc cc3c c4f0 c1bc
000001e0: 5211 513c 10fe 06bd 937a 043d ab95 72bd
000001f0: 9216 81bd c133 9b3d 41a9 fd3c f5e6 c6bc
00000200: 896b 323d 9c58 afbc 8b2f 4d3d aa76 d9bb
00000210: 7571 a33c e603 cabd a935 2abd e010 c73d
00000220: 5bad 71bd a216 e0bb cbee d1bc 6307 e3b9
00000230: 5ec1 503d dd27 94bd 6a35 fcbc 2c75 22bc
00000240: 0770 a1bd d57d a03d f74c 953d 0257 0bbd
00000250: 09f4 adbd 09ca 363b 7596 873d 0d18 78bd
00000260: ab55 353d 060a d8bc eb26 f83b a9f8 23bd
00000270: b741 b5bd 7811 c3bb 0d71 38bd f2c3 1abe
00000280: 71ff cbbb 467f 833b 48bc 04bd f0a5 60be
00000290: a47e 803c 2b9a fabc b972 cabd 6a52 3a3d
000002a0: 6114 863b 93bd e6bd 8808 a63d 94fd a63c
000002b0: e4a5 883a 6472 cebd 6b31 47bd e2d4 c53c
000002c0: 83c3 cbbd 2bbf 963d ecb2 12bb bbe0 bbbc
000002d0: c0d0 7b3c 12db 96bd 9390 be3c 2b6f 113d
000002e0: 3443 a8bb 2ede 5c3d 464c 153b 3dba debc
000002f0: 0885 88bd 85fe f3bd 0bfa 233d 99f8 02bd
00000300: 6e84 b0bc 4ae7 03bd fc74 b0bc 624a 8ebc
00000310: ee6e 483b 2826 ea3a c4a6 b33a 60df 6cbd
00000320: 9d19 ff3a 16b7 873c 1737 0ebd a27c be3c
00000330: 7fba 43bd d179 553c 34a1 493c db9e 68bd
00000340: 80d1 a63a 785c cbbc b86a 2a3c 2234 85bb
00000350: e453 ecbc a2d1 3abc d72c 85bd c0dc 33bd
00000360: 7fbd 4fbb a9c7 f0bd a19d 3b3d 3295 fbbd
00000370: 38ea f6bb c9dc 57bd d7f4 4c3d 8a66 dcbb
00000380: 380d 5e3b 16bb 523b a008 423d fa5b 583d
00000390: 4332 cd3c ebd0 67bd f1df a9bd 927a fd3b
000003a0: 6395 d73c 36cc 313d e79b 4ebc a60b c0bd
000003b0: f5cf dbbc 10d4 b8bd ecaa a7bd 1674 25bc
000003c0: 9e35 ba3d 3203 90ba 4c23 8d3c 44a0 5c3d
000003d0: c151 6abb 8aa3 d93c 7a2d ad3b 667e ef3c
000003e0: 8d2f febb aaae 4fbc 04ef 06bd 9b46 4a3d
000003f0: e725 153c 54cd b1bc bd1a bf3c 2162 19bd
0.041288126 -0.08275805 0.0154469935 -0.03382379 -0.013205306 -0.0582991 0.0801914 8.490968e-05
-0.067495055 0.043635577 -0.021009652 -0.02070873 0.03132409 -0.08024308 -0.05302152 0.002736105
0.029283863 -0.04469149 0.04528144 -0.016273275 0.043705318 -0.01437745 -0.094054654 -0.027936488
0.076299414 0.016122924 -0.0009174631 -0.013373343 -0.018416457 0.013784699 -0.019538695 0.056422863
0.14161408 0.03171803 -0.015960304 0.05266812 0.035223387 -0.011275751 0.08642444 0.07703338
-0.022086853 0.07398394 0.005774486 -0.03218161 0.03929377 -0.12854755 -0.008604122 0.043766752
-0.03938934 0.025536915 -0.028644634 -0.011857455 -0.012330396 -0.057385698 0.07044449 0.00067651324
-0.055075128 0.014524719 0.030789768 -0.1338111 -0.008192627 -0.009937394 -0.19485618 -0.07026105
0.033172615 -0.05177049 -0.07101377 0.051175833 -0.024891034 -0.0848384 0.032876566 -0.079818346
0.042671144 -0.04905757 0.007158682 -0.03213378 -0.09753624 0.07188273 -0.03260868 -0.035560507
-0.029869119 0.055725466 0.01202592 0.01564551 -0.01935791 -0.006225464 -0.08492959 -0.0095108645
0.030918008 -0.12129909 -0.0018063955 -0.07081767 -0.079793684 -0.054554608 0.035487104 -0.08864904
5.3947784e-05 0.05830569 0.09001092 -0.1347059 -0.051207237 -0.011420058 0.017843327 0.03389068
-0.017191043 0.017417211 0.0138408635 0.024813775 0.0093831215 0.01103879 0.00864184 0.035897233
-0.013212539 0.06668182 -0.04464076 0.08370386 -0.027330426 -0.03269316 0.024992414 -0.023674376
0.012760477 -0.032957137 0.03234346 -0.059224766 -0.06303133 0.07578231 0.030964496 -0.02428005
0.043559585 -0.021404557 0.05009417 -0.0066364603 0.019951561 -0.09864025 -0.04155508 0.097200155
-0.059003215 -0.0068386355 -0.02562656 -0.00043302317 0.05096566 -0.07234166 -0.030787189 -0.009915631
-0.07882696 0.078365006 0.072900705 -0.034018524 -0.08493812 0.0027891418 0.06620494 -0.06056981
0.044271152 -0.026371967 0.0075729988 -0.040032063 -0.08850425 -0.00595301 -0.04502969 -0.1511381
-0.0062255193 0.004012975 -0.03240612 -0.219383 0.015685387 -0.030591091 -0.09885163 0.045488752
0.004091785 -0.11266627 0.08107096 0.020384587 0.0010425416 -0.10080412 -0.048631113 0.024149362
-0.099494 0.07360681 -0.0022384478 -0.022934308 0.015369594 -0.07366003 0.023262298 0.03550641
-0.0051349644 0.053922825 0.0022781058 -0.027188415 -0.06665999 -0.1191378 0.04003338 -0.031975362
-0.021547522 -0.032202996 -0.021540157 -0.017369453 0.0030583697 0.0017864155 0.0013706316 -0.057830215
0.0019462589 0.016566794 -0.034720507 0.023252789 -0.04778528 0.013029532 0.0123065 -0.05679212
0.0012727231 -0.024824366 0.01040142 -0.0040650526 -0.028848596 -0.011402519 -0.06502693 -0.043911695
-0.0031698642 -0.11756832 0.045804624 -0.12284316 -0.0075352453 -0.05270079 0.050038185 -0.006726091
0.003388239 0.003215497 0.047371507 0.05282209 0.02504838 -0.056595724 -0.082946666 0.007735559
0.02631635 0.04340764 -0.012610412 -0.09377222 -0.02683256 -0.09024823 -0.08186898 -0.010098478
0.09092258 -0.001098728 0.017228745 0.05386378 -0.0035754296 0.02656724 0.0052849622 0.029235076
-0.0077571333 -0.0126759205 -0.032942787 0.04938374 0.009103275 -0.021704353 0.02332818 -0.0374471

bias f4 [64]
00000000: 85de 943d 06b0 93bd 33ae f7bb 089a b2bd
00000010: ef7d 0fbc 7d59 b63a d1fd acbd 86a8 43bb
00000020: 6b3a 8d3d e965 b0bc 8f29 aa3d ed3b 24bd
00000030: bf9f 98bd f891 8b3d dad0 763c 4418 32b9
00000040: b95e 9a3d 1cc0 663d f964 683d 97aa 253d
00000050: 1f53 96bc 034e fb3c bc8b 48bb 827a f13c
00000060: 0dcf 70bd 1043 9ebd 8c71 413d f560 523d
00000070: 2342 af3d d184 083c 8ee9 433d 6ea8 003d
00000080: 46f8 a9bb 5c3c 0f3d 33fe b2bb 03e1 cebc
00000090: 0766 843d 41b8 0bba 4931 a03d 36ef 003d
000000a0: e90d b5bc 1f59 4a3c 4e21 edbb 1222 773c
000000b0: 5c13 2abd aecb b1bd 9ed3 9fba 8e9b 30bd
000000c0: f8d4 3cbd def8 87bd f14c b33d fe22 953d
000000d0: a901 97bd 7f20 753d 2dcf b0bc 0fc8 243d
000000e0: 7320 a23d 5c5b b0bd 410d 9abd 1aa2 af3b
000000f0: 16bb adbd a123 e5bc 5c62 82bb 3c65 d7bc
0.07269005 -0.07211308 -0.007558608 -0.087207854 -0.008758052 0.0013912168 -0.08446849 -0.0029855086
0.06895908 -0.02153297 0.08308708 -0.040096212 -0.07452344 0.06814951 0.0150644425 -0.00016984442
0.07537598 0.056335554 0.05673692 0.04044589 -0.018350182 0.030676847 -0.0030600866 0.029477362
-0.05879121 -0.07727635 0.047227427 0.051361997 0.085575365 0.008332447 0.047830157 0.031410627
-0.005187067 0.034969673 -0.005462432 -0.025253778 0.06464773 -0.0005329885 0.078219004 0.03147813
-0.02210136 0.01235035 -0.0072366362 0.015083807 -0.04152237 -0.08681427 -0.0012193804 -0.0431171
-0.04610154 -0.066392645 0.0875491 0.07282065 -0.073733635 0.059845444 -0.021583164 0.040229853
0.079163454 -0.086111754 -0.07522059 0.0053599 -0.084829494 -0.02797109 -0.0039790105 -0.02629339

weight f4 [64]
00000000: 98f0 633f 1a49 773f d12c 723f c36c 783f
00000010: fd41 653f 6f0b 693f 5ca1 6d3f 933f 6a3f
00000020: c0a7 713f 5a4e 713f 0fac 603f f9c2 783f
00000030: 19a6 633f 6e3f 763f 402a 5a3f 8b60 763f
00000040: c455 803f 4de3 713f 081b 703f a815 613f
00000050: 19d8 6f3f 24f3 663f 2e84 763f 56a6 643f
00000060: 4468 663f 9383 773f eb4d 733f 85d0 6a3f
00000070: fcbf 633f 4583 6b3f a5fa 5e3f e3d4 6e3f
00000080: ed64 703f b4ec 693f 5930 733f fe80 6e3f
00000090: 8d6f 6e3f 24ee 6d3f 1671 713f 201b 683f
000000a0: 685d 743f 92a0 613f 0016 703f 43ad 603f
000000b0: cc05 733f 2d23 733f 714c 753f b76c 773f
000000c0: 737c 5e3f 8ebb 633f 047d 713f ad37 663f
000000d0: 5cc7 6e3f 7756 6c3f 6436 723f 2cf6 783f
000000e0: d3dc 6f3f 485e 6a3f e599 693f 73fc 783f
000000f0: 6638 653f 131c 5b3f 5da7 7d3f f789 753f
0.8903899 0.9659592 0.94599634 0.9704096 0.89553815 0.9103307 0.9282434 0.91503257
0.9439659 0.9426018 0.8776254 0.97172505 0.8892532 0.96190536 0.8522072 0.9624106
1.0026174 0.9448746 0.93791246 0.8792367 0.93689114 0.90214753 0.9629544 0.8931631
0.90002847 0.9668514 0.9504077 0.91724426 0.8896482 0.91997176 0.87101203 0.9329359
0.93904 0.91376805 0.9499565 0.93165576 0.93138963 0.929415 0.9431318 0.9066639
0.95455027 0.88135636 0.9378357 0.87764376 0.9493072 0.9497555 0.95819765 0.9665026
0.86908644 0.8895806 0.94331384 0.89928705 0.9327295 0.92319435 0.94614244 0.9725063
0.93696326 0.9155011 0.9125045 0.97260207 0.8953918 0.8558971 0.990835 0.9591364

bias f4 [64]
00000000: 8475 b1be a90b acbe 7dc3 87be 99bd 66be
00000010: dd14 a6be c6b1 a0be a642 a7be 22d4 9dbe
00000020: 3143 9dbe 6527 a7be b30c aebe 0a55 68be
00000030: f299 adbe c5c3 6abe 2bdc 7abe f1f8 3ebe
00000040: 62fb 84be 6c3f 93be 0eb9 9ebe ad4f 8bbe
00000050: bdbc 94be 6331 97be 67f3 a0be 3b36 8ebe
00000060: a1fe b6be f809 52be 6410 84be 7d3a a4be
00000070: c52e aabe 533a a1be 4dce a6be c4f0 83be
00000080: fa56 d0be e7c0 93be 3129 49be 19da 83be
00000090: cf9b 7fbe c0a0 81be d998 91be d3dc 3bbe
000000a0: cbfe 94be ecf1 d8be 1e84 63be 6b6d bcbe
000000b0: 4212 93be f545 9bbe 7390 89be 2146 9fbe
000000c0: b645 74be 5352 c3be 9bc4 8cbe 3f36 9cbe
000000d0: e08d a8be 4a2f b3be ecc8 64be 68fc a7be
000000e0: 08f2 80be 75e5 8fbe 4e4d c1be 9da0 a0be
000000f0: d24e bebe 4515 d2be 8d4b 91be 4fd5 74be
-0.3465997 -0.33602646 -0.26516333 -0.22533263 -0.32437792 -0.3138563 -0.32668036 -0.30825907
-0.30715325 -0.32647243 -0.33994064 -0.2268869 -0.33906513 -0.22926243 -0.2449805 -0.18649651
-0.2597304 -0.28759325 -0.3100056 -0.27209225 -0.29050246 -0.29529867 -0.314357 -0.2777575
-0.3574114 -0.20511615 -0.25793755 -0.32075873 -0.33238807 -0.3148981 -0.3257927 -0.25769627
-0.40691358 -0.2885811 -0.1964462 -0.25752333 -0.2496178 -0.25317955 -0.28436926 -0.18345957
-0.29100642 -0.42372072 -0.22218367 -0.3680223 -0.28724867 -0.3032681 -0.26868019 -0.31108192
-0.23854718 -0.38148746 -0.27493748 -0.30510136 -0.32920742 -0.34997016 -0.2234227 -0.32809758
-0.25184655 -0.2810475 -0.3775429 -0.31372538 -0.3716951 -0.41031852 -0.28377953 -0.23909496

running_mean f4 [64]
00000000: 6320 28be 499d 01bf 1af4 efbd f480 92bd
00000010: ad52 413e 7ec5 22be 9bd0 b6bd 6c8a aebe
00000020: 004f fabb 07fb 79be 7ee8 4c3e 18c1 04be
00000030: 5d92 c7be 82eb bdbd 6240 483e 82a0 673d
00000040: 5cc3 1abe fcbd 2a3d 766a 19bd f4b3 a3bd
00000050: 4e91 0cbe 17c2 a3bd fa31 a03d cbe9 21bd
00000060: 65b8 08bf 6ab6 fcbe f46c 603d c6af 26be
00000070: b819 b03d 6c44 a43d 0bd9 dd3d 64c6 c43d
00000080: 8c49 ddbe ece4 cfbe b7d8 023e 1963 8a3d
00000090: d212 23bd a2fb a83e 79c0 843d b886 f23d
000000a0: b397 d7be 54de 00bf 223a 94be 60b4 43be
000000b0: b896 253d 25e4 ecbe 10c2 7dbe b15b 89be
000000c0: ba26 88be d965 ffbd 225a 85bd 9402 29be
000000d0: 371f 8cbd 2505 083e be88 65be db99 7fbe
000000e0: 0839 313e 717f 08be f805 c3be c7ed 083d
000000f0: 1d10 64be 5ccc 94be 193d 39bd e222 93bc
-0.16418605 -0.50630623 -0.117164806 -0.07153502 0.18879195 -0.1589565 -0.08926507 -0.34089983
-0.007638812 -0.24412166 0.20010564 -0.12964284 -0.38978854 -0.09273435 0.1955581 0.056549557
-0.15113586 0.04168509 -0.037455045 -0.07993308 -0.13727304 -0.07996004 0.07822032 -0.039529603
-0.53406364 -0.4935792 0.054791406 -0.1627799 0.085986555 0.08020863 0.10832413 0.096081525
-0.43220174 -0.4060434 0.12777983 0.06757183 -0.03981287 0.3300448 0.06482024 0.11842102
-0.42107925 -0.50339246 -0.28950602 -0.19111776 0.04042694 -0.4626781 -0.2478106 -0.26827767
-0.26592046 -0.12470598 -0.06511332 -0.1650489 -0.06841891 0.13283212 -0.22415444 -0.24961035
0.17306912 -0.13329865 -0.3809049 0.033429887 -0.22271772 -0.29062164 -0.045224283 -0.01796097

running_var f4 [64]
00000000: e3f4 4f3e 100e 623e e36e f43d a355 9b3e
00000010: d9f6 f83d 5c17 093e a21a 643e b64b 133e
00000020: 19e7 1d3e 07f9 023e 80a1 d03d 0c2e c83d
00000030: 5ce5 173e 2ca3 e23d 9a1f b83d 74c5 3b3e
00000040: 336f 2f3e e11c f53d de37 323e 6ce3 e53d
00000050: 3e63 213e 1d05 fa3d 383e 043e bcac 443e
00000060: 062b 283e 464a 213e c5a9 dd3d fe06 4e3e
00000070: b36a 003e 0be9 103e 60d8 d63d 546e 0c3e
00000080: 5ebe 863e 0e26 0d3e 7eeb d43d 5a31 113e
00000090: 077a 103e 49aa 0c3e bd97 0b3e 7aa9 033e
000000a0: d5fd 4f3e 5607 403e 3542 063e 9c52 053e
000000b0: 8715 163e 4c0a 703e 41c6 3b3e 494d 1a3e
000000c0: 3d55 583e de35 153e 6066 593e 0918 2e3e
000000d0: d39f 043e c9d9 133e 0f0b 903e 1d6d 163e
000000e0: 925b 223e 3812 4c3e 2a64 473e 21f0 073e
000000f0: bb68 ff3d 0498 203e b83a 223e e413 743e
0.2030826 0.22075677 0.119352125 0.30338773 0.121564575 0.13387817 0.22275785 0.1438435
0.15420188 0.12790309 0.10187054 0.09774408 0.14833587 0.11066279 0.089904025 0.18337041
0.17132263 0.11968399 0.17404124 0.11225018 0.15760514 0.122080065 0.1291436 0.19206518
0.16422662 0.1575099 0.108233966 0.20119855 0.12540703 0.14151399 0.10490489 0.13713962
0.26317114 0.13784048 0.10396479 0.14178982 0.1410905 0.13736834 0.13632102 0.12857619
0.20311673 0.18752798 0.13111193 0.13019794 0.1465665 0.23441428 0.18337347 0.15068544
0.21126266 0.1457133 0.21230459 0.17001356 0.12951593 0.14438547 0.28133437 0.14690061
0.15855244 0.19928825 0.19471803 0.13275196 0.124711476 0.1568299 0.15842712 0.23835713

weight f4 [32, 64]
00000000: ac33 85bc 5ed0 c63d 5c51 a43c 4f36 0dbd
00000010: ebf6 b5bc aaaf c3bc e60f 05be af2d 293d
00000020: 837c 023d 0ed0 073e a098 9bbd 8fdc 7d3c
00000030: bd7c 6e3d cc88 80bd 3ee6 d3bc 20f4 e5bd
00000040: c84c fcbd da82 0dbe c831 013c f6f6 b0bd
00000050: 4e6a 093d f9c2 6fbd ee73 c5bd 50dc b7bd
00000060: 6354 e83d 83b6 f2bd 9460 00be fd47 e93b
00000070: 4e0b d03b d1f8 853d e3a4 11bd 2768 adbd
00000080: 73d4 853c 23c7 29bd 073b 5f3d 00cd a13c
00000090: a36d c03d 228d 073d 3d08 8d3d 6e48 93bd
000000a0: 3441 23be 86c7 bb3c cee4 0d3d ae98 d3bd
000000b0: d930 cbbd ca0d 053e f5c9 0cbd ee24 8cbd
000000c0: 7781 c8bc 1c05 d2bc 9628 033d 6567 c73d
000000d0: 35f3 e73d 8559 f63c f358 17be accd 92bd
000000e0: e4bb 1dbe 51f1 9cbd a99a 8dbd cb7d 1bbc
000000f0: e4a9 0c3e 2098 bcbd 0881 9fbd 6fb0 56bd
00000100: dd3b 88bc 92a6 bd3d 8707 e33d 21fb 80bd
00000110: be8f 4b3b d75e 9c3d e97d b8bd 5112 f6bd
00000120: 7b5d 4a3d e704 503e e88c 6cbc 11d3 4d3d
00000130: 1427 0b3d 236f 37bd bb86 89bb 702e 0abe
00000140: 4a5b 81bd e7b6 99bd 89be b23d 3fde eebd
00000150: 5a50 c93c a38d 8dbc 8151 4bbd 7c1c 733d
00000160: 4cb8 fd3d 1605 e3bc c0fb fbbc 826e 603d
00000170: d648 503d 2bf2 ac3c 34e7 0cbd 9218 fbbd
00000180: fdf6 0abd ca6f 00bd cc9e 9abc 1990 8f3c
00000190: d064 19bd 3548 293d 1348 17bd 226d 41bd
000001a0: b769 83bb e312 ab3d 24a5 743c e8c5 8f3d
000001b0: 51ae 3ebd d4af e73c adf8 713d 89df d3bd
000001c0: 438c 333d cb71 a3b8 613e e7bd c406 a2bc
000001d0: a508 9f3d ecc8 fe3c 54a4 16be b017 fd39
000001e0: c2ed 73bd 50cd e23c 6ce4 453d 7842 0cbe
000001f0: 00ee 8a3d acc7 b5bc 59a1 2dbd e9eb 7a3d
00000200: 0426 7a3d 6948 99bb 9a0f a23d 6776 18be
00000210: 21d6 fc3c d472 00be 708f 7ebd b00c dfbd
00000220: 33d1 b0bd e658 533d b900 06bb fdae afbc
00000230: 08b7 6bbd 7a98 d4bd e142 193c e5f9 ec3b
00000240: 80cb ccbc d218 6f3d 2d08 133e 7c89 14bc
00000250: 7019 10bd 0d4e 6e3b c5ce 9fbb 8ecc 15be
00000260: 8d1f a63c 41ee a8bd dff0 483a 3155 91bd
00000270: 9833 f8bc 5d19 f8bc 48d1 ccbd a51d 933d
00000280: a0ff c93d 8bc8 553d 38e2 7dbc 2c31 bcbd
00000290: 31bb 173d 2a18 bd3d cc7b a93c 5c1e 9abb
000002a0: 5ffb 17bd 16f6 0bbe bdb6 6abd 498e 73bd
000002b0: e6c7 5bbc ee58 88bd 6a30 693d ddd8 edbc
000002c0: e8a4 d5bd 1cf4 93bd 7db0 1cbe 2d84 fcbd
000002d0: df13 c73c 3856 97bc fc27 37bb 32bf a13c
000002e0: b881 583d f6e7 45bd 4492 29be f150 89bd
000002f0: 6f59 a23d bf0f 223d 721d 2ebd 64e9 27bd
00000300: 5f6a 583d 3f59 29bd 739b 46bd dbc8 30be
00000310: eea6 3c3c a6fd c23c b5f8 7dbc 75e9 84bd
00000320: 2489 9bbd 3aba 523d ce2c d8bc 8b1b 4cbd
00000330: ecaa 5dbd 0dbd e6bc f520 babd 2166 883d
00000340: 84a2 923d 1c56 353d e10a 1a3c b2b7 a93d
00000350: 6015 5bbd 64d5 a4bb e962 053d 8dc8 e23c
00000360: 138c 8cbd 22d4 463d 5f72 633d d3cd 50bc
00000370: 5453 2cbd 09c1 a0bd dc53 c7bc 59ad 553c
00000380: 630f 86bd a2c0 38bd 22a0 07be 3e06 a53c
00000390: 9b3c 1ebe 8ee2 c2bc f489 f1bd 1ca4 75bd
000003a0: 242e 32be cc78 ae3c 49ec 00be e069 27bd
000003b0: c050 67bd 2cbf f3bd 17df 413d dac7 81bc
000003c0: dbb7 56bc 2f3b d43d 26df 513d de02 c8bd
000003d0: 9541 c7bd 0c5f ae3d 414e 9ebd 5f47 7cbe
000003e0: 4ed2 113b 8e45 ffbc e5c9 d83c 1204 b53c
000003f0: 4799 4dbe f864 443e 77f8 4cbd 3e46 1b3b
-0.01625999 0.09707712 0.020058326 -0.03447562 -0.022212466 -0.023887474 -0.12994346 0.041303333
0.031857025 0.1326296 -0.0759747 0.01549448 0.05822443 -0.06276092 -0.025866624 -0.11228204
-0.12319332 -0.13819447 0.007885404 -0.08640854 0.033548646 -0.05853555 -0.096412525 -0.08977568
0.113442205 -0.118512176 -0.12536842 0.0071191774 0.006349004 0.065415986 -0.03555764 -0.08467131
0.016336655 -0.041449677 0.054499652 0.019751072 0.093959115 0.03309358 0.06886337 -0.07191549
-0.15942842 0.022922289 0.034642033 -0.10331856 -0.09921426 0.12993541 -0.03437229 -0.06842981
-0.024475796 -0.025637202 0.032021128 0.09736518 0.11325685 0.030071983 -0.14780025 -0.07168135
-0.15403706 -0.07663215 -0.06914265 -0.009490441 0.13736683 -0.09208703 -0.07788283 -0.052414354
-0.016630108 0.092602864 0.1108542 -0.06297899 0.0031061019 0.07635277 -0.090083905 -0.12015212
0.049405556 0.2031437 -0.014437892 0.050250117 0.033972815 -0.044783723 -0.0041969693 -0.13494277
-0.0631624 -0.07505589 0.08727748 -0.11663484 0.024574447 -0.017279452 -0.049638275 0.059353337
0.123886675 -0.027712386 -0.030759692 0.05479289 0.05085071 0.021111568 -0.03440018 -0.12260546
-0.033926953 -0.03135661 -0.018874548 0.017524766 -0.037449658 0.041328628 -0.03693397 -0.047223218
-0.004010405 0.08353212 0.014931951 0.070201695 -0.04655296 0.028282084 0.059075046 -0.1034537
0.043834936 -7.793641e-05 -0.11291195 -0.019778617 0.07765321 0.031101666 -0.14711124 0.0004827357
-0.059552915 0.027685791 0.048313543 -0.13697231 0.06783676 -0.022189938 -0.0423902 0.061260138
0.06107141 -0.0046778214 0.07913132 -0.14888917 0.030863823 -0.12543803 -0.06214851 -0.10891092
-0.086336516 0.051598452 -0.0020447208 -0.021445746 -0.0575476 -0.10380645 0.009354324 0.007231938
-0.02499938 0.05837328 0.14358588 -0.009065982 -0.03518051 0.003636244 -0.004876944 -0.14628813
0.020278716 -0.08248568 0.0007665287 -0.07096327 -0.03029804 -0.030285532 -0.10000855 0.071833886
0.0986321 0.052193206 -0.015495829 -0.09189066 0.037043754 0.092331246 0.020688914 -0.004703326
-0.03710496 -0.13668093 -0.05730318 -0.059461866 -0.013414359 -0.06657587 0.056930937 -0.029034073
-0.10431844 -0.072242945 -0.153017 -0.12329898 0.024301467 -0.01847373 -0.0027947417 0.01974449
0.052858084 -0.04831692 -0.16559702 -0.067048915 0.07927214 0.039565798 -0.04250855 -0.040994063
0.05283582 -0.041344877 -0.04848809 -0.1726412 0.0115144085 0.02380259 -0.015501191 -0.06489841
-0.07594517 0.05144713 -0.026388552 -0.049830955 -0.054118082 -0.028166318 -0.09088317 0.066601045
0.07159904 0.044271573 0.009402008 0.0828699 -0.05348718 -0.005030321 0.03256503 0.02768352
-0.068626545 0.04854215 0.055528995 -0.012744385 -0.042071655 -0.078493185 -0.02433198 0.013041818
-0.065459035 -0.045105584 -0.1324468 0.020144578 -0.15452807 -0.02378967 -0.117938906 -0.05997096
-0.17400414 0.021297835 -0.12590136 -0.040872455 -0.056473494 -0.119016975 0.047331896 -0.015842367
-0.013105358 0.10362851 0.0512382 -0.09766172 -0.09729306 0.085142225 -0.077297695 -0.24636601
0.0022250596 -0.031161096 0.026463458 0.022096667 -0.20078002 0.19179142 -0.050041642 0.002369299

bias f4 [32]
00000000: 8b11 fb3d 7498 983d 98f5 023c e9ce bc3c
00000010: 15fb 57bd 7eed ae3d e07a e8bc 15bd 9f3d
00000020: a4a5 a1bd fa76 bc3c f790 b3bd 5185 933d
00000030: 11f3 32bd e45b e8bc ba54 2a3d a265 b23c
00000040: 4876 f73d fcbb e03c 4e86 553d 68e0 333d
00000050: 0d6f be3d bbcd 39bd 33b8 a6ba 7478 bcbc
00000060: 298a 8a3d 5ded ee3d d7c2 b13d 1421 5bbc
00000070: 0f15 a7bd 8cda a0bd 8939 db3d 2c43 28bd
0.122592054 0.07450953 0.007993124 0.023047881 -0.052729685 0.08541392 -0.028378904 0.077997364
-0.078929216 0.023005951 -0.08767884 0.072031625 -0.043688837 -0.02836413 0.041584708 0.021776978
0.12083107 0.027433388 0.052130036 0.043915182 0.09298525 -0.045362215 -0.001271969 -0.023006655
0.06764633 0.11666367 0.08679741 -0.013374586 -0.081583135 -0.078541845 0.10704333 -0.041079685

weight f4 [32]
00000000: d063 953f 0a28 943f 3732 913f 0ee6 873f
00000010: edd1 8c3f d431 883f add2 833f 8edf 7f3f
00000020: c0a7 853f 4978 853f f8ac 8e3f 7bf3 913f
00000030: ba8e 863f 3df8 883f afef 8d3f 96e0 913f
00000040: 265f 853f a1c7 983f 5786 803f 8202 893f
00000050: 9615 853f 234c 923f 8bb5 983f 237b 8b3f
00000060: 60be 833f 5985 933f d1cc 833f 2546 8a3f
00000070: b64b 8a3f 17c8 893f 683a 8c3f d546 8f3f
1.1671085 1.1574719 1.1343449 1.0617082 1.1001564 1.0640206 1.0298668 0.9995049
1.0441818 1.0427333 1.1146536 1.1402429 1.0512307 1.0700756 1.1088771 1.1396663
1.0419662 1.1935922 1.0040997 1.070389 1.0397213 1.1429485 1.1930403 1.0896953
1.0292473 1.152507 1.029688 1.0802656 1.0804355 1.0764188 1.0955324 1.1193491

bias f4 [32]
00000000: 585e 36be 71c8 dabd 2a15 9ebd 8610 52be
00000010: 3c4f 9fbd 4a47 2fbe 1184 5dbe 960a 5cbe
00000020: ef9e 73be 8028 cebd 1edc 02be c0b4 81bd
00000030: a923 8dbe 0951 b2bd fdc7 43bd 79e7 12be
00000040: 8258 ecbd eb3c 42bd 70e8 0fbe 5286 f6bd
00000050: d708 1fbe 2b0a 5abe a30e 22bd bb3b 35bd
00000060: 5216 83be d93c 8dbd 2448 dcbd 4bbe 5cbe
00000070: 2604 08be 1c8e 4fbd 4677 43be cf9f e4bd
-0.17809427 -0.106827624 -0.077188805 -0.20514116 -0.07778785 -0.17117038 -0.2163241 -0.21488413
-0.23791097 -0.100663185 -0.1277928 -0.063333035 -0.2756627 -0.087068625 -0.047798146 -0.14346112
-0.11540319 -0.047421377 -0.14053512 -0.12037338 -0.15530716 -0.21292941 -0.03956474 -0.044246417
-0.25602967 -0.068963714 -0.10755947 -0.21556966 -0.13282833 -0.050672635 -0.19088468 -0.111632936

running_mean f4 [32]
00000000: f993 4ebe 5ae9 13bd 89f8 98be bcfa b6be
00000010: c807 aabe 2fd6 5dbe 85cc 65be 3c3c 0cbd
00000020: fa5f 91be 5ade bdba 381b a6be 960a 5e3c
00000030: b53b 9bbe 17ee 22be b224 33be 9ff4 ccbe
00000040: 541a 1ebd 25bb 98bd 5474 f8bd 644d 51be
00000050: ed7e 94bd 87a1 95bd ba29 b7be a42f 72bd
00000060: 0005 64be 574b aabd a50a 39be f0d3 273e
00000070: 7410 b0be 42e2 08be ef58 19be c385 9dbe
-0.20173635 -0.036111213 -0.29877117 -0.3573817 -0.33209062 -0.21663736 -0.224413 -0.03423713
-0.28393537 -0.0014485822 -0.3244264 0.013552329 -0.3031899 -0.15911137 -0.17494467 -0.4003038
-0.038599327 -0.0745757 -0.12131563 -0.20439678 -0.07250772 -0.073061995 -0.35774022 -0.059127465
-0.22267532 -0.08315151 -0.18070467 0.16389441 -0.34387553 -0.1336756 -0.14975332 -0.30766115

running_var f4 [32]
00000000: 131f 3f3e a568 fb3d 6d3f e63d e184 e33d
00000010: c0ed df3d c421 cb3d 3e6e 1e3e 0655 023e
00000020: d346 dd3d a797 963d caed d23d a271 b83d
00000030: 6c9f 043e 529f e73d 92b4 973d bac3 e83d
00000040: 30e8 5c3d 1455 013e 7917 b73d 0e1f b73d
00000050: d04c b83d 2afe a03d 4ea9 c33d c6a2 023e
00000060: beed 073e 5388 2a3e c82a 073e 69b3 a43d
00000070: b1db af3d 5a48 d63d 6cee 1b3e 26ca 2d3e
0.18664198 0.12275819 0.11242566 0.11109329 0.10934019 0.0991855 0.15471742 0.12727746
0.10804524 0.07353144 0.10299261 0.09006049 0.1295144 0.11309685 0.07407488 0.11365457
0.05393237 0.12630111 0.08940024 0.0894147 0.08999026 0.07860978 0.09553777 0.12757406
0.13274285 0.16653566 0.13199914 0.08042032 0.08586825 0.10463019 0.1522767 0.16971645

weight f4 [3, 32]
00000000: 4158 97be 7fb9 f0bd c0be 673d a6ea 493d
00000010: 40b6 e93d a218 153e 19c2 febd 6f06 09bd
00000020: 978d 00be cff0 f6bd 3364 493e 699a c83a
00000030: 9acc 3ebe 6c16 75be 2686 5a3d 18af 7f3e
00000040: 62d3 053e f6a8 8ebd aea8 dd3c 0a7c db3c
00000050: bc8a 1dbe 1687 2dbd a8b2 093e ea1a 82bd
00000060: a1ea 36be 8b27 16be a779 1f3e 3481 4a3d
00000070: eb83 ba3d 5096 b3bd a75b 71be d373 b0bd
00000080: f364 acbc 1807 0a3e bccf 973d 4d89 89be
00000090: b926 8e3c a0af 1dbe 2958 2bbc e91b 1f3e
000000a0: 76e7 4e3e 145f 6a3d 593e bebd a997 7dbc
000000b0: cefe febd a680 883d afdd a83d 0398 833d
000000c0: 84bd 29be b60f 163e 2814 1b3e ac4e f63d
000000d0: 5942 f13d f8c7 e8bd b2b3 f73c 403f 3c3e
000000e0: 1544 bfbd 2b9d b73d 7730 de3d 5d92 80be
000000f0: 040c 9cbd 5c6b ff3c e6a6 503d 1a7e 573e
00000100: 9ba4 6d3d b6b9 433e a383 9bbe e39d b4bc
00000110: 5246 5bbe 40a8 803c a96d 5f3e 8f32 95be
00000120: 8936 3bbc f480 153e 7961 ee3d 2464 8abe
00000130: e5eb 0d3e 287f adbb 6684 89be cf7c f4bc
00000140: 8234 063e 1c67 333e 638d 1bbe b331 84be
00000150: 23f2 4bbd e68c fa3d 81bb 10be decc 4c3e
00000160: 7f54 f13d 7b33 db3d 7438 3fbe a8f0 64bc
00000170: c45e 15be 9213 cf3d f5c9 323e 1e69 303e
-0.2955952 -0.117541306 0.056578398 0.049296044 0.114117146 0.14560178 -0.12439365 -0.0334534
-0.12554012 -0.12057649 0.19667129 0.0015304807 -0.18632737 -0.23934335 0.05335059 0.24969137
0.13068917 -0.069658205 0.027057972 0.026792545 -0.15384954 -0.042365156 0.13447058 -0.0635279
-0.17862941 -0.14663522 0.1557375 0.049439624 0.091071926 -0.08768904 -0.23570119 -0.08615842
-0.02104423 0.13479269 0.07412669 -0.26862565 0.017352449 -0.15399027 -0.010458031 0.1553799
0.20205483 0.05721958 -0.092892356 -0.015478053 -0.12450944 0.06665163 0.08245408 0.06425478
-0.165762 0.14654431 0.15144408 0.12026724 0.11780233 -0.11366266 0.030237053 0.18383503
-0.093391575 0.08965524 0.10849088 -0.25111666 -0.07619479 0.031179123 0.050940417 0.21044198
0.058018308 0.19113812 -0.30373868 -0.022047943 -0.21413544 0.015705228 0.21819176 -0.29140136
-0.011426576 0.14599973 0.11639685 -0.27029526 0.13859518 -0.005294699 -0.26858824 -0.02984467
0.13105968 0.17519802 -0.15190654 -0.25819167 -0.049791466 0.122339055 -0.14134027 0.20000026
0.117836945 0.107031785 -0.18673879 -0.013973393 -0.14586931 0.101111546 0.17459853 0.17227599

bias f4 [3]
00000000: 7615 e13c a3ea 42be f6df 52bd
0.027476054 -0.1903482 -0.051483117
