model_fine_tuned.pth (torch, 67268 bytes, 20 tensors)

weight f4 [128, 22]
00000000: 099e 6d3c 6ae9 5d3e 81bb bb3c 866f eb3d
00000010: 0e21 e03d f485 c83c efa1 21be d15a 363e
00000020: ab93 ef3c 30b7 ebbd 3803 573e c61a 933d
00000030: 8a91 dabd d4d3 823d f0c8 853d 4b08 9fbd
00000040: 86a2 dcbc ff4a 423e c945 45bd e0b2 50be
00000050: 73a2 1cbe 829e d5bd 2a73 f0bd 9a4a 81be
00000060: ceac a0bb 54b3 0a3e 6f12 71bc cc84 0cbe
00000070: 7a3e 303e f26d d13d b581 76bd ed2c 033e
00000080: 1cbe 033d a89b de3b e978 11bc baff 273d
00000090: 867b 743d cd0c 253e 17ce d7bd 0713 313e
000000a0: d18c 003e b06a 19be 7568 163e b333 c93d
000000b0: 6923 f4bb 0557 89bd f17d ee3b 2a5b 85bd
000000c0: e5ef dbbe 997c 8fbd f0f5 363d dbce 943d
000000d0: 8a1a acbd 8813 fe3b 89a9 bc3d 80eb 9ebd
000000e0: 65d5 033e ea7b 74bb f6e0 d7bb df7d 373e
000000f0: 40d3 7a3d d9f9 f73d 5e4a 053d ddb5 26bd
00000100: 0013 05be f748 0abc 1083 4b3e 282e 1cbe
00000110: bdc8 953d f4cd 56bd 242f 873d 292c 6d3d
00000120: 8c70 08be d318 033e 5d1a 2fbe b5c8 64bd
00000130: 8800 b43a 7c0e 32be cc34 13be 9249 f7bd
00000140: 0b76 fa3d 4585 81bd 67b1 903d 5215 233e
00000150: adb5 a8bd 90f3 383e d713 133e 958a acbc
00000160: db85 55bd b13a 74bd f3fa 8bbc ddee 2b3e
00000170: 7b27 c13d e270 95bc 9d0e 9a3d 04ae f7bd
00000180: 2e00 c4bd 14fa ebbd 32fb b73c ae23 2c3d
00000190: 5958 04be ead0 423e 8b74 1abe 2940 653c
000001a0: f562 233e e545 49bd e327 5f3d fa0a 48bd
000001b0: cbb2 c8be 47ff 3fbd bb92 95bd 3dfe 17be
000001c0: 0c5e 743d e164 3f3d f183 003e 2460 993d
000001d0: b01a 753c 8360 8b3d 7021 5cbe c59e 13be
000001e0: ad8d 0d3e b764 203e 2704 763c e022 f7bd
000001f0: 6726 a6bd 3cdd 63bd 80c4 9c3d ffa8 56be
00000200: fd99 85be 6478 643d b296 c1bd 8210 423e
00000210: 785c 48be 1017 ad3d 79d9 323e 2a09 d8bc
00000220: f6ed 583d b69b febb f128 38be d143 59be
00000230: 0f65 333e 8565 50be 4785 7fbe 78c7 ca3d
00000240: b541 adbd 57dd ecbc 6b8d 49be 268e e13d
00000250: 793b 1b3d 1700 583d 8394 c43d 6dcc 0bbd
00000260: c8a3 7fbd 90be 70bc da2a 98bc 6dca 43be
00000270: 69f2 d0bd a0df b83c 0a86 383c 7c36 27be
00000280: 3486 2b3b 498d 143e 29d9 1a3e 4c30 dc3d
00000290: 047b ed3d 2f90 24bd baf4 933c 165e 863d
000002a0: 693b 343c 060e 273e 7534 92bc 3dc8 333e
000002b0: a4bc 00bd b6a5 bf3d 2f14 823d 4230 df3d
000002c0: 6b04 90be 819a 19bd 8e7f e93c 8e5d 4d3d
000002d0: 68d7 753d 80c9 553e 38d6 9cbd 6911 ec3d
000002e0: 78c0 0fbe 8f5c 94bd 8578 c3bb 00f3 203e
000002f0: 923c 423d ea43 e63d 8c28 3cbe 954f 0abb
00000300: d5c5 da3d 685d 87bc ca8d 10bd c221 c4bd
00000310: af40 9ebd 8562 a4bc 653e 1cbe 4779 a5bd
00000320: 3bae 133d ec3e a63d 593d 6dbd ff0c 6bbd
00000330: 6512 17be 5b03 213e 0bdd 8e3d df47 fd3d
00000340: 45ac 30be e842 a7bd d42a 5e3e bc6c ff3d
00000350: d81b d43d d3d5 7fbe b49a 343e be13 113e
00000360: 5089 e2bd 0038 8c3d b9be ce3c a663 5a3e
00000370: e10e 6d3d 5834 2f3e 674d 543e 3bba 96be
00000380: 16ba 3cbd e115 15bd 6e8c 0b3d ebba 653d
00000390: 356e 24bc ef17 8dbd 0705 30bc 210a 343c
000003a0: 4c07 67bd 3cbc 683e 6cf9 6a3e da64 21be
000003b0: 5db5 113e 029c 38be 10c1 00bd 7ff6 0b3e
000003c0: 100a 863e 3941 e9bd 60a4 4e3d 6c2f 85bd
000003d0: b582 e2bd ac6e 3fbe db53 f93c e8a1 40be
000003e0: a0ca 6bbd 5b06 8ebe 2c5f 533d 0a70 083e
000003f0: 7561 90bd b4cb 03be 729d 3c3e f40f 19bd
0.014503011 0.21671072 0.022916557 0.11495881 0.10943805 0.024477936 -0.15784429 0.17808081
0.029245218 -0.115095496 0.20997322 0.07182841 -0.106722906 0.06388059 0.065324664 -0.07765254
-0.026932966 0.18973921 -0.048162255 -0.20380735 -0.15296344 -0.104306236 -0.11740716 -0.2525223
-0.0049034124 0.13544971 -0.014713868 -0.13722533 0.17211333 0.102260485 -0.060182292 0.12810107
0.032163724 0.006793458 -0.008878925 0.041015364 0.059688114 0.16118164 -0.105373554 0.17292415
0.12553717 -0.14982104 0.14688285 0.09824314 -0.0074505103 -0.06706051 0.007278197 -0.06511529
-0.42956463 -0.07006187 0.044668138 0.07266017 -0.084034994 0.007753793 0.09212024 -0.07759762
0.12874372 -0.0037305304 -0.0065880967 0.1791911 0.06123662 0.121082015 0.032541625 -0.040700782
-0.12995529 -0.008440248 0.19874215 -0.15251982 0.073136784 -0.052442506 0.06600788 0.057903443
-0.13324183 0.12802438 -0.170999 -0.05585547 0.0013733068 -0.17388338 -0.14375609 -0.12074579
0.12229546 -0.06324247 0.07065087 0.15926102 -0.08237777 0.18061662 0.14363037 -0.021062175
-0.052129608 -0.059626285 -0.017087435 0.16790338 0.094313584 -0.018242303 0.075223185 -0.12093738
-0.09570347 -0.11522308 0.022458646 0.042026214 -0.12924327 0.19025007 -0.1508352 0.013992348
0.15955718 -0.049138922 0.0544814 -0.048838593 -0.39198908 -0.04687431 -0.07303377 -0.14843078
0.059660003 0.046727065 0.12550332 0.074890405 0.014959976 0.068055175 -0.2149713 -0.14416035
0.13823576 0.1566342 0.015015638 -0.12067199 -0.081127934 -0.055630907 0.07654667 -0.20962904
-0.26094046 0.055778876 -0.09452571 0.1895161 -0.19566524 0.084516644 0.17465772 -0.026371557
0.052961312 -0.007770027 -0.17984368 -0.21217276 0.1751902 -0.20351227 -0.24953185 0.09901327
-0.08459798 -0.028914137 -0.19682853 0.11013441 0.037898514 0.05273446 0.09598639 -0.034130502
-0.062412053 -0.014693871 -0.01857512 -0.19120188 -0.10202486 0.02256757 0.011262426 -0.16329378
0.002617252 0.14507021 0.15121903 0.107513994 0.11595729 -0.040176567 0.01806103 0.06560914
0.011000493 0.16313943 -0.01784728 0.17556854 -0.0314299 0.09357779 0.06351506 0.10897876
-0.2812837 -0.037500862 0.028503206 0.05013805 0.06001988 0.20877647 -0.076580465 0.11526758
-0.14038265 -0.07244217 -0.005965295 0.15717697 0.047421046 0.11243422 -0.18374842 -0.0021104563
0.10682265 -0.016524032 -0.03529147 -0.09576751 -0.07727181 -0.020066509 -0.15258177 -0.080797724
0.03605483 0.0811747 -0.057919834 -0.05738544 -0.1475311 0.15723936 0.06975754 0.12367224
-0.17253216 -0.08167058 0.21696025 0.12471911 0.10356873 -0.24983911 0.1763714 0.14167687
-0.110613465 0.06846619 0.025237428 0.21327075 0.057875518 0.17109811 0.20732652 -0.29438958
-0.046075903 -0.03639782 0.03406947 0.056086462 -0.010036041 -0.068893306 -0.010743386 0.010988743
-0.056403443 0.22728056 0.2294671 -0.15761128 0.14229341 -0.18028262 -0.03143412 0.1366825
0.26179552 -0.11389393 0.05044973 -0.06503186 -0.11060087 -0.18694562 0.030435493 -0.18811762
-0.057566285 -0.27739224 0.051604435 0.1332399 -0.070498385 -0.12870675 0.18419436 -0.03736873

bias f4 [128]
00000000: 8bce b3bd e007 04be 03d0 5e3d 3cc3 54be
00000010: ecdd 023e 4ef6 343d ae8f a33d a755 24be
00000020: 71e7 18be 8c2f 4cbe 7cea c2bd a507 003e
00000030: bcb0 483d 3cbc 7bbd 14b2 313e f4db 6ebd
00000040: 88f0 3e3e 6753 fa3c f4ef 033e 0eb6 c6bc
00000050: 0ffc 8bbd dba9 1bbe d793 cb3d 11be 3cbe
00000060: 5c32 4bbe fde5 ffbd b96a f8bc 7bde 1f3e
00000070: 1933 2c3e e199 e33d f5c9 09bd af80 4fbe
00000080: 1a53 52bb 694c c5bd 7cfb 4a3e bc8d 18be
00000090: 6650 89bd 3613 ecbc 4e19 ad3d 2424 533e
000000a0: 0115 2fbd aac4 91bc 2a79 09be 9974 8bbd
000000b0: e592 11be f820 d93d af3b 26be c2e4 33bd
000000c0: 11bd 41be 0d0d 14be 0f94 18bd 14e1 3bbe
000000d0: e18c b0ba 9f8c 2e3e f6c2 ea3d 80ac 5d3d
000000e0: a3cd da3c 08b1 13be 9897 dbbd 29c0 f3bd
000000f0: b755 2bbe 5fc4 a4bd 31b7 1d3e 0d29 533e
00000100: fcca 533e 5deb 0abe dd12 3abe d69d 4c3e
00000110: c756 263e 01fe 493e fe73 48be 29d1 83bd
00000120: 1a8a 503d d1a0 98bd ac76 263e 99ab 79b9
00000130: 9ea9 d0bd 260f e6bd 373a e1bd 3897 e43c
00000140: c7bd 353e 772e 033e 23ca df3d fb23 4fbe
00000150: c91e f43d cca3 d53d 31af 63bd 1ee1 22be
00000160: c9e3 d5b9 1f28 1439 3e44 a33d 027a a33c
00000170: 3cc2 a93d c283 33be 19d2 623d 8f54 4b3e
00000180: 7089 6dbd 52c1 1abe 6884 35be d414 0abd
00000190: 3a28 8a3d 4f5c 1ebe fb0d 933d 11f8 553e
000001a0: e4e8 37be b0e0 343e 2421 e23d 04f1 613d
000001b0: e72c 363d d9c2 4dbd 7724 f43c 31ad 08be
000001c0: 83a3 20bd bedc 683d 3b4f e0bd 893b fdbd
000001d0: 0ad4 04be 2dba 823d 924c e93d 8ff3 f03d
000001e0: 7e23 583d 6979 3dbd 81fa 2a3e b48f 3b3e
000001f0: ee30 b73d be25 52be 563d 9eba 1ce6 50bd
-0.08779629 -0.12893629 0.054397594 -0.20777601 0.12779969 0.044180207 0.07986389 -0.16048299
-0.14932038 -0.19940013 -0.095173806 0.12502916 0.048996672 -0.06145881 0.17353088 -0.058315232
0.18646443 0.030557347 0.12884504 -0.024256732 -0.06835186 -0.15201513 0.099403076 -0.1843188
-0.1984343 -0.12495039 -0.030324327 0.15612213 0.16816367 0.111133344 -0.033639867 -0.20263933
-0.003209299 -0.09633715 0.19822496 -0.14897817 -0.06704788 -0.028817754 0.08452092 0.20619255
-0.04274464 -0.017793972 -0.13425127 -0.068093486 -0.14216192 0.106019914 -0.16233705 -0.043919332
-0.1891978 -0.14458103 -0.037250575 -0.18347579 -0.001346972 0.1704583 0.11462967 0.054119587
0.026709383 -0.14423001 -0.107222736 -0.11901886 -0.16731916 -0.08045267 0.15401913 0.20621128
0.20682901 -0.13566346 -0.18171258 0.19982085 0.1624404 0.19725801 -0.19575498 -0.064363785
0.050912954 -0.07452548 0.16256207 -0.00023810416 -0.10188602 -0.11233358 -0.10997432 0.027904138
0.17748176 0.12810694 0.109272264 -0.20228569 0.11919934 0.104316324 -0.055586997 -0.15906188
-0.0004079624 0.00014129326 0.079720005 0.019955639 0.082890004 -0.1753073 0.055376146 0.19856475
-0.0579924 -0.15112808 -0.1772629 -0.03371127 0.06745954 -0.154649 0.07180401 0.20895411
-0.17959934 0.17663836 0.11041477 0.05516149 0.044476416 -0.05023465 0.029802544 -0.13347317
-0.039218437 0.05685114 -0.10952612 -0.12364871 -0.12971511 0.063831665 0.11391558 0.11765205
0.052768223 -0.046258364 0.16697122 0.18316537 0.089448795 -0.2052221 -0.0012072723 -0.0510007

weight f4 [128]
00000000: 881c 833f 7c1f 6a3f 3054 863f 4182 613f
00000010: f2f7 6a3f a593 733f fafb 653f 405c 783f
00000020: df7d 7d3f bcc1 7b3f 2b77 7c3f a397 7d3f
00000030: 9627 623f 7d3b 7b3f f2ab 6b3f 5512 813f
00000040: e2cb 703f 099e 6e3f c11d 7a3f e0ce 703f
00000050: 8ea0 7a3f 9817 773f bd43 6c3f 37e0 6e3f
00000060: 6e5d 803f edba 803f 988e 823f 2a70 763f
00000070: 8cbf 7e3f 4726 6c3f 8ac4 6d3f aa61 7e3f
00000080: 7cb5 7f3f 8c1a 733f 3b90 7a3f fe3f 663f
00000090: 29be 6e3f 7796 803f cc1a 7f3f 0219 763f
000000a0: 388f 673f a1e1 7e3f 1731 833f 73fb 723f
000000b0: 0dca 6b3f 6d1c 633f e937 7c3f da8a 843f
000000c0: 7109 703f 5e0c 6b3f 9eb8 763f 9245 7a3f
000000d0: 6f7d 813f e291 8a3f 1fd8 6c3f 871d 7e3f
000000e0: bf3b 783f 8d8e 773f e79a 7f3f 13ab 6d3f
000000f0: 6bd4 673f 6013 7f3f d8ec 843f 19bf 7d3f
00000100: 4ddf 7c3f d1dc 7b3f 4e13 713f 6d51 7d3f
00000110: aa26 6c3f b315 783f a26e 7a3f ffe7 7f3f
00000120: abac 713f a32f 803f 3eb0 7d3f c7c6 853f
00000130: 4097 6c3f d9fa 713f 1537 713f 9517 773f
00000140: e845 813f 8aa4 6c3f 3611 873f c898 6e3f
00000150: cafd 773f c806 6f3f 3adf 673f 14fd 723f
00000160: 54fd 693f 5e3a 6e3f 4d6a 823f 78d6 723f
00000170: f35c 833f 9885 803f d380 643f 8742 793f
00000180: 3041 6f3f 3c52 743f 30e8 743f 6aa3 803f
00000190: e3ec 7c3f c8f0 753f 1e98 763f a3e7 6e3f
000001a0: a50f 7a3f bab0 803f 64f8 823f bb82 733f
000001b0: 058a 733f ac7e 703f 3876 823f 9c8b 6e3f
000001c0: 5e34 7a3f 8c3b 7f3f 8561 793f 8073 713f
000001d0: ae34 863f 3216 763f 20b2 773f b1fc 783f
000001e0: 3286 653f fc73 723f bcd4 7d3f 5245 873f
000001f0: 84fa 843f a82b 7e3f 14fc 6f3f 48e4 703f
1.0243082 0.9145429 1.0494442 0.88089377 0.91784585 0.9514716 0.8983761 0.9701576
0.9902019 0.9834249 0.98619336 0.99059504 0.88341653 0.98137647 0.9205924 1.008372
0.940611 0.9320989 0.9770165 0.94065666 0.97901237 0.96520376 0.9229086 0.93310875
1.0028512 1.0057045 1.0199766 0.962649 0.9951103 0.92245907 0.9287802 0.99367774
0.998863 0.9496238 0.9787633 0.89941394 0.9325891 1.0045918 0.99650264 0.9613191
0.9045291 0.9956303 1.0249356 0.9491493 0.9210518 0.8871525 0.9852281 1.0354874
0.93764406 0.91815746 0.96375453 0.97762406 1.0116404 1.082577 0.92517275 0.99263805
0.96966165 0.9670189 0.9984574 0.92839164 0.905585 0.9963894 1.0384779 0.99119717
0.9877823 0.98383814 0.9417008 0.9895237 0.92246497 0.9690811 0.9782506 0.9996337
0.94404095 1.0014538 0.9909705 1.0451287 0.9241829 0.9452339 0.94224674 0.9652036
1.0099459 0.92438567 1.0552127 0.93201876 0.96871626 0.9336972 0.9057499 0.94917417
0.91402173 0.9305781 1.018869 0.94858503 1.0262741 1.004077 0.8925907 0.9736714
0.93458843 0.9543798 0.9566679 1.004987 0.9879896 0.9607053 0.9632586 0.933222
0.9768012 1.0053933 1.0232053 0.95121354 0.95132476 0.93943286 1.0192327 0.93181777
0.97736156 0.99700236 0.9741443 0.94316864 1.0484827 0.9612762 0.9675617 0.97260576
0.8965789 0.9470823 0.9915273 1.056803 1.0388951 0.99285364 0.93744016 0.9409833

bias f4 [128]
00000000: 592a 28bd 8a5b 57be 8dfe 81be 71a7 9ebe
00000010: 0014 5dbe b30f 59be 4f11 57be f4f5 74be
00000020: b5e8 e9bd d4c1 1fbe 7c1e 3cbe d1a9 98bd
00000030: 55c3 01be b4df f3bd 5f6b 9cbe 2422 14be
00000040: e1d1 8ebc 5e38 3ebe 3825 16be 2519 f8bd
00000050: f270 adbd 657e 25be bcdb dbbd bc88 a6be
00000060: b372 0bbe 198d 27be 9abd 20be d37c 9abe
00000070: 9258 3bbe 94b4 48be 12cb fdbd 6f9b 0ebe
00000080: 89d1 54be 5bc4 80be f1c0 0bbe 52f3 62be
00000090: 2907 6ebe c67a 74be 4ba7 66be 8345 36be
000000a0: 0770 4ebe 5567 fdbd ab90 58be e2d5 9cbd
000000b0: d1d5 25be 7d96 30be 2f77 43be 170b 2dbe
000000c0: bcf4 ffbd 2622 d8bd c05a 22be 5c4f 15be
000000d0: a073 8fbe f376 83be ea1c aebd 8516 0dbe
000000e0: ad53 43be 55ef 25be a566 fabd 2dd1 f8bd
000000f0: 0f76 0fbe ee0b 4abe b8d1 91be 6e54 31be
00000100: 2b0f 62be f04e 75be f497 86be f89f 6bbe
00000110: 4ac5 52be 13ef 46be 1673 3cbe 2247 1bbe
00000120: 5622 b5bd dc6b 7cbd 21a2 67be 73ca 51be
00000130: 7b3e 58be ba7b f9bd 578a 86be b8bf bbbd
00000140: a3fc 8bbd 1369 39bd b015 a9bd e984 42be
00000150: 5780 1abe 618b 51be 9a5a 04be 9f6d 66be
00000160: 8329 59bd f7a9 76be 510d 12bd 733d 34be
00000170: 9f80 19be 848e 38be d01e 7ebe 29e0 93be
00000180: 8544 7cbe 8886 25be b7db bfbd dd3b 27be
00000190: 320d 4ebe 957b ecbd 5a2d 07be 7cb6 e2bd
000001a0: 5e86 91be a1b4 8abe 5a9a 6dbe f24e d0bd
000001b0: e380 73be f916 bcbe a704 21be d3e0 e7bd
000001c0: 9a6a 98be 0aef 33be 4c58 48be 9ba4 7dbe
000001d0: e9b1 5abe 55f8 80be 4e0f 5abe 2985 15be
000001e0: 00b3 02be 1263 53be c7c5 c0bd 55cc 70be
000001f0: cdbe 79be 2383 37be f47e 3fbe 9ce6 80be
-0.04105601 -0.21031013 -0.2538952 -0.30987123 -0.2158966 -0.21197395 -0.21002696 -0.23921949
-0.114213385 -0.15601283 -0.18371004 -0.07454265 -0.1267217 -0.11907902 -0.30550668 -0.14466149
-0.017434062 -0.1857619 -0.14662635 -0.12114171 -0.08468808 -0.16161497 -0.107352704 -0.32526195
-0.13617973 -0.16362418 -0.15697327 -0.30173358 -0.18295506 -0.19600135 -0.12392248 -0.1392648
-0.20783056 -0.25149807 -0.1364782 -0.22163132 -0.23244919 -0.2387496 -0.22524755 -0.17799954
-0.20159923 -0.12373225 -0.21148936 -0.076579824 -0.16194846 -0.17244907 -0.19088434 -0.16898762
-0.12497851 -0.10553388 -0.15854931 -0.14581054 -0.28017902 -0.2567669 -0.08501609 -0.13778122
-0.19074889 -0.16204579 -0.12226609 -0.12149272 -0.1400988 -0.19731113 -0.28480315 -0.17317364
-0.22076099 -0.23955894 -0.26287806 -0.23010242 -0.20583072 -0.19427137 -0.18403277 -0.15163854
-0.0884444 -0.0616263 -0.22620441 -0.20487384 -0.21117584 -0.12181802 -0.2627742 -0.09167427
-0.06835296 -0.045266222 -0.0825609 -0.18996014 -0.1508802 -0.20463325 -0.12925187 -0.22502755
-0.053018104 -0.24088274 -0.03565723 -0.17601566 -0.14990471 -0.18023115 -0.24816442 -0.28881958
-0.24635513 -0.16164601 -0.09368079 -0.1633143 -0.20122221 -0.11547009 -0.13200894 -0.110699624
-0.28422827 -0.27090934 -0.23203412 -0.101713076 -0.23779635 -0.36736277 -0.15724431 -0.11322179
-0.2976883 -0.17571655 -0.19564933 -0.24769823 -0.2135693 -0.25189462 -0.21294901 -0.14601578
-0.12763596 -0.20643261 -0.09412723 -0.23515446 -0.24389191 -0.17921118 -0.18700773 -0.2517594

running_mean f4 [128]
00000000: 3da1 b4bd 17bf a8bd f8be bd3d c625 44be
00000010: cfd7 b43d e7e1 203d 9665 443d d84b babd
00000020: b07e 21be 3484 2ebe 13f7 a2bd 248d be3d
00000030: 2dfd 653d ef37 68bb 4e43 523e 4329 68bd
00000040: 95bd 3f3e b1ce 6c3d e4d8 1c3e 004f 82bd
00000050: 4f1b e4bc ee1c 90bd b87d ed3d 2407 8abd
00000060: ad0e 5ebe 0e4f 07be 01a0 a7bd 09a5 bb3d
00000070: c537 c13d 178f b43d b0e2 45bd 3fbe 5abe
00000080: 1488 223c 2dcf c6bd 2ae3 7b3e 9b90 5cbe
00000090: b41c b6bd c44c 43bd 0803 123e a047 2e3e
000000a0: 3432 24bd 7bde 433d 986b 0abe 28c2 4fbd
000000b0: 1a09 07be 57fe a43d 80c2 13be 6088 1dbd
000000c0: 7634 45be 81e3 48be 5ac3 cebd a274 3ebe
000000d0: 53df 453d 3a25 3f3e eed1 fc3d 792a e43b
000000e0: 9f62 cfbc 1a51 1fbe ed7a a0bd 93e5 4fbe
000000f0: 1edd 02be 6fa0 0bbe 1bcd 793e 197b 6b3e
00000100: 62f7 3b3e b4ce e5bd 52ee 1abe a68a 503e
00000110: 7fdc 183e 81de 673e c2c6 6dbe 0183 3cbd
00000120: 3800 1f3d a67b 96bd 33cd 6c3e 28cb 4bbc
00000130: cfc3 bbbd 33b3 c4bd 6534 1bbe 5520 ca3c
00000140: 87ae 393e de36 1e3e 2714 de3d 3083 3bbe
00000150: c7fe 113e 18a7 813d c877 eabd 91a9 14be
00000160: 2faf 0a3d 9c46 dbbc ace1 1c3e 4b8d 85bd
00000170: 58ab df3d 99db 3fbe aaa7 5e3d d83d 3e3e
00000180: 0027 d6bc cef8 49be 03b8 28be 50ed 20bd
00000190: 5a2f c33d 43a7 19be 2b6a a63d dcde 5e3e
000001a0: 16e4 70be b5ed 273e ae2b 0f3e 3fab ad3d
000001b0: 98e5 103d 5f50 0ebd 7473 ca3a d5b3 02be
000001c0: 2bd7 cabc 3575 683d 9cfc d5bd 8ddc 0abe
000001d0: efa0 e8bd 1f07 993d 26cd f73d 0fe9 e83d
000001e0: 62a3 953d 67ca 5cbd 2c1c 653e a2b3 0b3e
000001f0: 643e 303e 0be9 8abe 0e03 1fbd f97f 88bd
-0.08819816 -0.082395725 0.0926494 -0.19155034 0.08830225 0.039277937 0.047948442 -0.09096497
-0.15770984 -0.17042619 -0.07957282 0.09304264 0.05614965 -0.003543373 0.20533487 -0.056679975
0.18724664 0.057814304 0.15317112 -0.06362724 -0.027845053 -0.07036768 0.115962446 -0.06739643
-0.21685286 -0.1321375 -0.08184815 0.09162337 0.09434465 0.08816355 -0.04831189 -0.21361636
0.009920139 -0.097074844 0.24598375 -0.21539538 -0.088921934 -0.04768063 0.14258969 0.1701951
-0.04008694 0.047819596 -0.13517606 -0.05072227 -0.13187066 0.08056324 -0.14429665 -0.038460135
-0.19258294 -0.19618036 -0.10095854 -0.1859918 0.04830868 0.18666545 0.123447284 0.006963071
-0.02531558 -0.15558282 -0.07835946 -0.2030242 -0.12779662 -0.1363542 0.24394648 0.22996177
0.18356088 -0.11221066 -0.15129974 0.2036539 0.14927863 0.22643472 -0.23220351 -0.046023373
0.038818568 -0.07347803 0.23125152 -0.012438573 -0.09168207 -0.09604492 -0.15156706 0.02467362
0.18132983 0.15450618 0.108436875 -0.18311763 0.14257346 0.06330699 -0.11448628 -0.1451781
0.033858474 -0.026767068 0.15320462 -0.0652109 0.10921353 -0.18736114 0.054359116 0.18578279
-0.026141644 -0.19723818 -0.16476445 -0.03928882 0.09530516 -0.15005212 0.08125719 0.21764702
-0.23524508 0.16399272 0.13981506 0.08479928 0.035375208 -0.034744617 0.0015445785 -0.12763913
-0.024760803 0.056752402 -0.10448572 -0.13560696 -0.11358821 0.07472061 0.12099676 0.113725774
0.073065534 -0.053903963 0.22374028 0.13642743 0.172113 -0.27130923 -0.038821273 -0.06665034

running_var f4 [128]
00000000: dc90 563e 7c04 3a3e 1a46 833e 063b 053e
00000010: babe dd3d b804 0a3e 254e 7e3e b237 173e
00000020: 00ae 483e 3053 f73d 5f2b bf3d 081b 913e
00000030: 08ec 9b3e a957 8e3e df74 da3d 4eb4 6f3d
00000040: 514a e73d aec1 6d3e bd41 a33d 88c2 a23e
00000050: 4eaa fa3d 989e 803d ddd8 fb3d b125 df3d
00000060: f409 a63d d2c2 9a3d d5c6 623d 31dd 5f3e
00000070: ecae c43d 7bec 433e 708b a53e e3bc 4a3e
00000080: c6b3 ac3d 4cba 043e 4b18 083e b0b3 523e
00000090: d340 1d3e 8893 2e3e 4ba6 eb3d 13e4 8c3e
000000a0: a9d0 413e a423 213e 5387 153e 8d7d 313e
000000b0: fbc8 ff3d 7314 b63d bb2e 493e fcd5 883d
000000c0: 8d92 2e3e 97bc 823e e6b1 0f3e c477 453e
000000d0: cb0a 8d3d 8ec9 583e f89c 883e 04f4 7a3e
000000e0: 69c3 8e3e 4ae5 c13d 74ef 5f3e 4668 323e
000000f0: 8ede 203e ac70 e03d 7443 283e 3c13 833d
00000100: f3b2 3e3e 26ab 593e 090f 523e 3e6c 9c3d
00000110: c9a9 f43d 5b93 e03d 1fb7 1d3e 3a6e b33d
00000120: f5d3 3f3e 428e 0f3e dd02 503e d688 033e
00000130: d64c 1e3e 5d5d 2b3e c66f 173e 661f 753d
00000140: 0c71 b53d ef40 703e 11c8 c83d f422 463e
00000150: b643 633e 3ed1 323e 6971 023e e22d 343e
00000160: 3abe 6d3e 80bf b93d ee2e 723d ffc7 393e
00000170: 6175 133e 5302 e03d da80 083e b6f4 453e
00000180: 814b 233e f55a ac3d 282f 263e 19cd 463e
00000190: 887b 1f3e 6ebc 6e3d 73a4 f63d 0399 6a3e
000001a0: 4ac7 f83d f883 363e 1059 283e e559 2a3e
000001b0: 2da5 403e 41d3 2d3e 72cf cd3d 27cf 313e
000001c0: 2faa 9d3d 5931 0f3e 145b f53d 3661 173e
000001d0: de41 033e fe1c 023e e575 053e 7d42 063e
000001e0: e959 653e 2881 123e fc85 9c3d 721f 223e
000001f0: a1a4 0c3e 57f0 913d b8e2 df3d 947e 8e3d
0.20953697 0.18165773 0.2563942 0.13010797 0.10827394 0.13478363 0.24834497 0.1476734
0.19597626 0.12076414 0.09334444 0.28340936 0.30453515 0.27801254 0.10666823 0.05852156
0.112934716 0.23218414 0.07971523 0.3178904 0.12239514 0.06280249 0.12297223 0.10895861
0.08107367 0.0755669 0.055365402 0.21861722 0.09603676 0.19133179 0.32332945 0.19798617
0.084327266 0.12961692 0.13290517 0.20576358 0.1535676 0.17048466 0.11506327 0.27517757
0.18927254 0.15736252 0.14602403 0.1733305 0.12489506 0.08890619 0.19646733 0.06681439
0.17048092 0.25534508 0.14032707 0.19283968 0.06886824 0.21170637 0.26682258 0.24507147
0.2788346 0.094675615 0.21868688 0.1742259 0.15709898 0.109589905 0.16431981 0.06400153
0.18622951 0.21256694 0.20513548 0.07637833 0.119464464 0.10965606 0.15401886 0.087612584
0.18733199 0.14019111 0.20313592 0.12845168 0.15458998 0.16734834 0.14788732 0.059844397
0.088594526 0.2346227 0.09803785 0.19349271 0.22193798 0.17462632 0.12738575 0.17595628
0.23217097 0.09069729 0.059126787 0.18142699 0.14400245 0.10937943 0.13330403 0.19331631
0.15946771 0.08415786 0.16228926 0.19414176 0.15574467 0.05828517 0.12043085 0.22909932
0.12147386 0.1782378 0.16440225 0.16635855 0.1881301 0.16975118 0.10049333 0.17364179
0.076984756 0.13983668 0.119802624 0.14783177 0.12818095 0.12706372 0.13033254 0.13111301
0.22397579 0.14307082 0.07642743 0.15832308 0.13734676 0.07125919 0.10931915 0.069577366

weight f4 [64, 128]
00000000: 174e ca3c 83eb 023b 385c dd3d c4f5 0cbd
00000010: 3e41 03bd 3bc7 9fbc f823 663c 543b 543d
00000020: a617 583d f97f f1bc cfa3 d0bd 83e2 a9bb
00000030: f496 fabc a7fb dcbc f976 e9bc 6bbd c13c
00000040: 2685 84bc cca6 8bbd 2341 0fbc f5ae 2cbb
00000050: 048f e43c 1ff5 8fbd 395f c7bb 13f2 a2bc
00000060: 9e1d bb3d 675a 893c 0816 efbc f4bf f63b
00000070: bd3c f8bc 5e68 553c 1dfe 783b a10f 8c3b
00000080: 0980 55bc 8001 f9bc c10f 173d ae87 9e3d
00000090: 9257 e6bc bd73 87bd 085f 0fbc e6b5 e6bd
000000a0: c87f 8f3c 5c19 0f3d 196e 19bc 49ab b83c
000000b0: 233c 0fbd a7c3 29bd 98c0 b4bc 1282 6b3b
000000c0: aa51 573c 9b1a 0f3d 7bb8 803c 3cab c4ba
000000d0: 4d09 cd3d 3ed0 a7bd b1ac 37bc 6626 38bd
000000e0: 736e fc3c 43b7 643b 359c 1d3c 1d01 633d
000000f0: b206 053c d333 53bd b095 11bd daf1 35bd
00000100: 47de e03d 64ae 373d a325 dbbd c386 8c3c
00000110: cab9 a9bd f69e d4bc 982c 80bd d64f 1dbc
00000120: 9229 8dbc a3c6 9c3c 9ce5 29bd 3db4 09bd
00000130: 8c46 c53d 5f76 11be a871 b4bd 7479 103c
00000140: 289d 3a3b eff3 2a3d d734 953c 0af1 1b3b
00000150: 7df8 36bc b22d 03bc 9f29 dbbd a772 703c
00000160: e4b1 9e3c f9c8 f83b 5f86 123d b53b 6b3c
00000170: 97a3 9e3b 6b1d e7bc 581f c53d 0d9f d8bc
00000180: f79b f9bd 6079 263d 4081 9dbd 6f52 a33d
00000190: 34c4 9b3d b3af 4cbd 12ef dfbc 86a9 bdbc
000001a0: 6021 223d e53a 453d 9509 1d3c f158 093c
000001b0: 2337 883c 1497 fa3c 6e54 e33a 4bad f5bc
000001c0: 7376 27be cc70 f4bc 6a14 9abc 5caf 1f3d
000001d0: fdf5 c8bd cb53 57bd a371 02be 7e84 fabc
000001e0: 0104 49bd 5263 88bd e2af 76bd 0a24 493d
000001f0: 7fc2 4bbd 8c90 debc e787 1dbc 9a5b b23c
00000200: f892 373d 54dc fabc 11e7 4cbd 7d48 353d
00000210: 8c18 3e3d c2c3 993d a7e5 513d 3798 50bd
00000220: e26d 8a3d 33d5 133d 6de5 013d 0231 343d
00000230: 25fa 5d3b ca35 b3bc 9391 a33d 6927 b1bd
00000240: 5a29 b13b f228 d03c 3bcb 753a ad63 113d
00000250: 4948 aa3c 4a07 96bd 8dbd 12bd c252 5a3c
00000260: c8fa 2c3d 2cea 05be a024 1cbd 2020 523c
00000270: ad8d 1fbd 1498 8a3b a755 b6bc c5b8 3c3d
00000280: 7923 2abd 4681 1d3d 78e2 a13d d09c 8dbd
00000290: b6b5 a03c 43d2 0b3d 4b52 1dbd 6b28 9e3b
000002a0: 1f27 843d 16b6 b33b 8bf6 9ebc adb1 153d
000002b0: 8ae3 e13b e8ec dfbc 3d49 333c f891 8b3a
000002c0: bdc3 f23c 2ee0 e63c 09b2 ae3c 4b9b 94bd
000002d0: 037d a0bc f4e5 9bbd d780 3cba 16b0 6bbd
000002e0: 28c4 99bd d421 adbd 0e2a 813c 1bea 9dbc
000002f0: dd05 9dbb 3a27 803c 1c78 a5bd 06ff 81bd
00000300: 8c7b 1c3d 3f57 97bd dcbf 4b3b 1a53 113c
00000310: 7392 8fbb 5ba6 bb3c c2e0 f03c 0327 edbb
00000320: 537b 693c 7057 58bb 5434 c5bd 7700 343d
00000330: 5562 60bd c8ee ec3c a759 bc3b c6bd ab3b
00000340: 9aec 2dbc eed7 84bd d9ec 55bc c68f dabd
00000350: f460 58bd c724 df3c 9e12 cebc abdc 59bd
00000360: 26fa d13b c5bc 213d dded bbbc 69d4 13bd
00000370: f6bd 9d3c b4eb b0bc f6c4 743d fd08 81bd
00000380: 83ba f53d 5a98 a93d a4af fa3c 0f74 433a
00000390: f195 393d 012d d5bc 5249 fb3c d585 033c
000003a0: b6d4 b4bc 7a9a b8bd b7ec 35be ccea 113d
000003b0: f4c7 a63b 504f adbd 445e 3bbd e263 1cbd
000003c0: 06f1 123d 1997 323c 3027 1bbc a25b ca3d
000003d0: ce01 9e3d f74b 80bd 61d4 7c3d f9a1 77bc
000003e0: b016 073d 9213 93bc a05c 2a3d 7658 823d
000003f0: 3dc5 293d 4541 1d3d 9a3c febc 500b 03bd
0.02469544 0.0019976802 0.10808605 -0.034414068 -0.03204464 -0.01950418 0.014046662 0.051814392
0.052756928 -0.029479967 -0.10187494 -0.005184473 -0.030589558 -0.026975466 -0.028499113 0.023649892
-0.016176771 -0.06818923 -0.008743557 -0.00263494 0.027900226 -0.07029175 -0.0060843495 -0.01989082
0.091365084 0.01676674 -0.02918531 0.007530207 -0.0303024 0.013025371 0.003799326 0.004274324
-0.013031014 -0.030396223 0.03688026 0.077407226 -0.028117929 -0.06613872 -0.008750685 -0.11265163
0.017516986 0.034936294 -0.009364628 0.022542613 -0.03496946 -0.041446354 -0.022064492 0.0035935682
0.013142029 0.034937482 0.015712967 -0.0015004645 0.100115396 -0.08194016 -0.011210606 -0.044958495
0.030814385 0.0034899272 0.009619762 0.055420984 0.008119272 -0.051563095 -0.035543144 -0.0444201
0.10979896 0.044844046 -0.10700538 0.017154103 -0.082873896 -0.025954705 -0.062585056 -0.009601554
-0.017231736 0.019137686 -0.04147874 -0.033619154 0.096325964 -0.14205311 -0.08810741 0.008818019
0.002847502 0.04173654 0.018213673 0.0023794794 -0.011167643 -0.0080065 -0.10701298 0.014675773
0.019371934 0.007592317 0.035772678 0.014357497 0.004841279 -0.02821227 0.09625119 -0.026443029
-0.12187951 0.040643096 -0.07690668 0.07974707 0.07605782 -0.049972247 -0.027335677 -0.023152124
0.03958261 0.04815187 0.009584804 0.008383022 0.016627854 0.030589618 0.0017343888 -0.02998986
-0.16353779 -0.029838942 -0.018808562 0.038985595 -0.098125435 -0.052570146 -0.12738661 -0.030580755
-0.049076084 -0.06659569 -0.06022633 0.049106635 -0.049746033 -0.027168535 -0.009614921 0.021772195
0.044817895 -0.030622639 -0.05002505 0.044258583 0.04641013 0.07508041 0.051244404 -0.050926413
0.0675924 0.036091994 0.031712938 0.04399205 0.0033871022 -0.021876235 0.079867505 -0.08650095
0.005406541 0.02541015 0.0009376292 0.03549545 0.020786421 -0.07325609 -0.0358253 0.013325395
0.04223135 -0.1307761 -0.038120866 0.012825042 -0.038953472 0.004229555 -0.02225764 0.046074647
-0.041537736 0.038453363 0.079045236 -0.06914675 0.019617897 0.034136068 -0.03840856 0.0048265955
0.06452774 0.005484353 -0.01940467 0.036546398 0.00689358 -0.027334645 0.010942754 0.001064836
0.02963435 0.02818307 0.021325128 -0.07256182 -0.01959086 -0.076122195 -0.00071908295 -0.057540976
-0.07508117 -0.08453718 0.015767124 -0.01927667 -0.0047919587 0.015643705 -0.0807955 -0.0634747
0.03820376 -0.07389688 0.00310897 0.008869911 -0.004381472 0.022906473 0.029404048 -0.0072373166
0.014250594 -0.0033011101 -0.096291214 0.043945756 -0.054781277 0.028922454 0.005747992 0.0052411286
-0.010615492 -0.06486498 -0.013056957 -0.10671954 -0.052826837 0.027239216 -0.025155362 -0.05318896
0.006407994 0.039486665 -0.02294057 -0.036091242 0.01925562 -0.021596767 0.05975815 -0.063005425
0.11998465 0.08281012 0.03060133 0.0007455954 0.04530901 -0.026022436 0.03067461 0.0080275135
-0.022074085 -0.09013839 -0.17766081 0.03562431 0.0050897542 -0.08462393 -0.045744196 -0.038181193
0.03587439 0.010900282 -0.009469792 0.09880759 0.07715188 -0.06264489 0.061725978 -0.015114301
0.03298062 -0.017953668 0.04159224 0.06364529 0.041447867 0.038392324 -0.031034756 -0.03199321

bias f4 [64]
00000000: c785 3bbc 3552 9fbd 2d3a ae3d 0eba bbbc
00000010: 57db b1bc b60b 9d3d 5d2f a9bd f1ec aabc
00000020: 72d0 673d a46c 57bd 0598 b3bd 759b 023d
00000030: e867 15bb 4d06 6a3d 4883 5dbb b5f3 593d
00000040: 3655 d83c fb21 6ebc e05a 703d 63a1 a13b
00000050: 5159 503c 9be3 ffbc 2eed 593d adbd 34bd
00000060: b398 bfbc c5c7 98bd 5556 81bd 7ce8 91bc
00000070: fc83 ed3c 916d acbc b6e4 64bc 9c9c c6bc
00000080: 21a7 9b3d 6425 a1bd 3ec7 49bd 6da3 863d
00000090: 9f9e 8e3d 2b89 05bc 644e a9bb 573b 9e3d
000000a0: 5bbe 6c3d 8f3d 2bbd 6251 503b 955f 23bd
000000b0: 49f9 81bd 387c 793d 2d84 9abc 1715 5fbd
000000c0: e434 173d bd46 ab3d fdb7 51ba c536 b2bd
000000d0: 11c4 183d a14d 123d 4438 afbd 093c 29bd
000000e0: ea56 8f3a 2393 1d3c 2702 a2bd 08b9 1c3d
000000f0: 5ba8 4bbd 1a8f 6d3d 04f2 a03d 7421 8c3d
-0.011445469 -0.077793516 0.0850719 -0.022915866 -0.021711035 0.07668249 -0.08260987 -0.020864936
0.056595273 -0.052593842 -0.0876923 0.031886537 -0.0022797529 0.057134915 -0.0033800174 0.053210933
0.02640782 -0.014534469 0.058680415 0.004932569 0.012716607 -0.03123646 0.053204708 -0.0441262
-0.023388242 -0.07459978 -0.06315295 -0.017811053 0.0289936 -0.02104834 -0.013970545 -0.024244599
0.07600237 -0.0786846 -0.049262278 0.0657414 0.06963848 -0.008150379 -0.0051668156 0.07726162
0.057798725 -0.041806754 0.003178679 -0.039886076 -0.063463755 0.06090948 -0.018861854 -0.054463472
0.036915675 0.08363102 -0.00080001337 -0.08701853 0.03729636 0.035718564 -0.08555654 -0.04131702
0.0010935937 0.0096176 -0.07910567 0.038262397 -0.049721103 0.0579978 0.07858661 0.06842318

weight f4 [64]
00000000: 7788 753f 0f46 813f 5516 803f 0c3a 7a3f
00000010: d130 833f 70c6 853f 4bc7 6f3f c25c 763f
00000020: df63 683f 1675 7c3f 402c 8b3f e920 7e3f
00000030: 0c30 7e3f 09cf 7c3f 84af 703f 4ef7 703f
00000040: 1df9 763f e87c 7f3f 7af1 743f f6ac 823f
00000050: 3877 7f3f 837f 7b3f 202a 803f ba4f 703f
00000060: ea82 6b3f 7b93 693f 8da4 703f 160c 733f
00000070: 5d3b 733f 2e26 793f 2515 6f3f 4cc2 833f
00000080: fda6 863f a517 683f aad4 743f 1825 7c3f
00000090: 07b8 783f 79b3 6b3f d061 783f 2338 6a3f
000000a0: 0973 763f f08e 7e3f 82e2 813f 532f 7a3f
000000b0: 3e08 7b3f 5c2e 6c3f 3511 773f 0cfb 753f
000000c0: f5d2 6a3f b4ea 7a3f ccf0 773f 7c0d 7c3f
000000d0: aca6 813f e0c5 823f e116 813f 6f8e 823f
000000e0: c2d7 833f 181b 7e3f 590e 793f 7e6f 833f
000000f0: 584c 813f 4efa 7b3f f809 733f ea91 843f
0.95911354 1.0099505 1.0006815 0.9774482 1.0249273 1.0451183 0.9366347 0.9623529
0.9077739 0.9861616 1.0872879 0.99268967 0.99292064 0.9875341 0.94017816 0.94127357
0.96473867 0.99799967 0.95680964 1.0209033 0.9979129 0.9824144 1.0012856 0.93871653
0.91996634 0.9124066 0.94001085 0.94940317 0.95012456 0.9732388 0.9339164 1.029367
1.0519711 0.9066108 0.95637 0.984941 0.97155803 0.9207073 0.9702425 0.9149191
0.9626928 0.99436855 1.014725 0.9772846 0.9805945 0.9225824 0.9651063 0.9608619
0.91728145 0.9801438 0.968518 0.98458076 1.0128989 1.0216637 1.0085107 1.0199717
1.0300219 0.9926009 0.9728752 1.02684 1.0101423 0.9842881 0.94937086 1.035703

bias f4 [64]
00000000: b149 09be d634 dabd b88a 89bd 7ed6 0cbe
00000010: c18c 02be 3820 71bd da19 8cbe 51d5 28be
00000020: ce2c 00be aeae febd ef06 6bbc faef 0fbe
00000030: c26b 11be f1a4 21be 260c 71be 168b 92be
00000040: 43e1 12be 7a03 8fbd 510d 7ebe 139c 5cbd
00000050: a38f bcbd f4a5 d1bd 1e54 efbd d303 1bbe
00000060: a9e7 70be 8d1f 66be e7f2 2bbe 3628 4ebe
00000070: 3f10 eebd dd82 29be 3e11 25be 4cf8 53bd
00000080: 492e 9abd e6e4 1fbe ee32 78be a9b1 fcbd
00000090: 2056 97bd 3259 75be 9dc6 bbbd d1ab 95be
000000a0: ec82 18be 2f95 4bbd b002 8abd 634b 80bd
000000b0: d1ce 23be 5480 7ebe 8556 30be d820 ecbd
000000c0: 4ab2 66be 1687 c5b9 1f53 48be 1789 35be
000000d0: c1f8 e7bc e180 36be 6361 cfbd 8a7d 00bd
000000e0: 758e 91bd 696b 57bd a10a 81bd 4556 8ebd
000000f0: edcc 5fbd 82d5 d3bd 16cf 31be 3586 71be
-0.13407017 -0.10654609 -0.067159116 -0.13753697 -0.12749006 -0.058868617 -0.27363473 -0.16487624
-0.12517092 -0.12435661 -0.014344915 -0.14056388 -0.14201263 -0.15785576 -0.2353979 -0.2862174
-0.14343743 -0.06983085 -0.24809767 -0.05385978 -0.09207084 -0.10236731 -0.11685966 -0.15138178
-0.23525871 -0.22472973 -0.16791879 -0.20132527 -0.116241924 -0.16553827 -0.16119859 -0.051750466
-0.075283594 -0.15614662 -0.24238178 -0.123385735 -0.07389474 -0.23959807 -0.09168742 -0.29232648
-0.14893693 -0.04970282 -0.06738794 -0.06264379 -0.15996863 -0.24853641 -0.17220505 -0.11529702
-0.2252895 -0.00037675415 -0.19562958 -0.17728077 -0.028316857 -0.17822601 -0.10125997 -0.031369723
-0.0710725 -0.05259267 -0.063008554 -0.06950048 -0.05463879 -0.10343458 -0.17364153 -0.23586352

running_mean f4 [64]
00000000: 5458 aebe 50c7 35be 7872 62be 7c7d 7ebe
00000010: 73ef 9ebe f201 193e 8ba8 cbbe 8630 ee3e
00000020: 79d6 54be 92ba a1be a6f2 43be b46f 923a
00000030: bd55 9ebe 2718 6ebe bd99 05bf 6839 cfbe
00000040: 059d fabd ec21 e53c 0247 c2be 3daa be3d
00000050: d6d0 f33e c02d 813e d3bc eabe b8fe b6be
00000060: 7af3 e9be 64e4 a9be ca4d 873d b642 cdbe
00000070: f3b9 51be 3624 3a3e ba4d 45be 39fb 363b
00000080: 5fb1 0f3d fc50 d63d 2fed d8be 1d74 633e
00000090: 99c3 28be 9af3 b2be eddd 53bd 02eb b4be
000000a0: 7bff c6bd 5b6a afbe b161 f8bd dc98 a3be
000000b0: a539 5e3e a447 cdbe 392d f03d 6589 fabe
000000c0: f369 c7be 4cc0 c03d b56e bcbe 95d1 9fbe
000000d0: b01d 2dbe c862 923e 76ee 693e 3ad8 11be
000000e0: 9a58 12be f863 aebd df72 83be c0e2 b53e
000000f0: a9f4 4ebe e8c1 d53c 46c8 8dbe 5526 bcbe
-0.34051764 -0.17751813 -0.22113979 -0.24852556 -0.3104206 0.14942148 -0.39777026 0.46521395
-0.2078494 -0.31587654 -0.19135532 0.0011172206 -0.30924788 -0.23251401 -0.5218771 -0.40473485
-0.1223698 0.027970277 -0.379448 0.09309814 0.47620267 0.25230217 -0.45847186 -0.3574121
-0.4569357 -0.3318206 0.06606634 -0.4008996 -0.2048109 0.18177876 -0.19267932 0.0027920736
0.035081264 0.10464665 -0.42368457 0.22212262 -0.16480865 -0.34951478 -0.051725317 -0.35335547
-0.09716698 -0.3426083 -0.12128008 -0.3195256 0.21701677 -0.4009372 0.117273755 -0.4893295
-0.3894802 0.09411678 -0.36803213 -0.31214586 -0.16905856 0.2859099 0.22844872 -0.1424264
-0.14291611 -0.08515161 -0.25673577 0.3552456 -0.20210518 0.026093438 -0.2769186 -0.36747995

running_var f4 [64]
00000000: 4272 813e 96c0 093f c139 643e b113 143f
00000010: 8a1b 0c3f 2f3a 143f 8a1e e13e ac3f 9e3e
00000020: bb34 0c3f fd43 173f 4e6b 503f 9ef8 033f
00000030: d36b a73e 4397 323f 59da e13e 9da8 b03e
00000040: 6a8e af3e fe9a be3e edc8 0a3f abe3 0c3f
00000050: 66fe 793e d69d b53e 6f06 9e3e 87ce 413f
00000060: d77d e53e 696a 093f 70d3 7d3e daaa 943e
00000070: 04f2 c63e 54a0 be3e a294 8a3e c2b7 6c3f
00000080: dc7e 243f 6235 b53e f566 0c3f 4ab8 e33e
00000090: 3ed5 013f de1f 983e dbd2 a13e 1ab3 ad3e
000000a0: d50f 013f 7145 bb3e 9bd7 9f3e a4e2 b73e
000000b0: a183 dc3e bb56 053f 90ba e93e c83e 9e3e
000000c0: a14a f43e 3033 183f 207f ba3e 757c e33e
000000d0: bc3c 0d3f 509c d23e 3f59 883e 8ce0 133f
000000e0: 1f29 513e 7458 ab3e 090d 983e d03c e53e
000000f0: 5bf7 273f 538c 263f 1563 d63e f9b0 a03e
0.25282484 0.5380949 0.22287656 0.57842547 0.5472952 0.5790128 0.43968612 0.30907953
0.5476796 0.59088117 0.81413734 0.51551235 0.3269945 0.6976206 0.441119 0.34503642
0.3428834 0.37227625 0.5421284 0.55034894 0.24413452 0.35471982 0.30864283 0.7570576
0.4482257 0.53677994 0.24787688 0.290366 0.38856518 0.37231696 0.27066523 0.9246789
0.6425607 0.3539229 0.548446 0.4447654 0.50716007 0.29711813 0.31606182 0.33925706
0.5041478 0.36576417 0.3121918 0.359151 0.43069175 0.52085465 0.45650148 0.30907273
0.47713187 0.59453106 0.36425114 0.4443089 0.551708 0.41134882 0.2663059 0.57764506
0.20425843 0.33465922 0.29697445 0.4477296 0.6561181 0.6505787 0.4187247 0.3138502

weight f4 [32, 64]
00000000: 5141 03bd 5d89 0fbd 913b 1dbc 4ce0 203d
00000010: f07f 96bd e07d 683d 319b ecbd 33da 99bb
00000020: 70da a43d 1b0d f7bd 8e7c c23c b5cb 553d
00000030: b181 bd3c e2cd 443c ef25 303c 1dab 073d
00000040: b216 99bd 6b3a 0abc 9656 8f3d 0298 87bd
00000050: d9ff 81bd 8a8a 30bd a3bd 00bd ca30 0abe
00000060: 3f17 2e3d a6b4 b43b 3a5b e5bc d92d 57bd
00000070: 338f e13c b4d8 0cbe 9f84 ae3b 7c88 1cbd
00000080: cf5b e7bd 36ac ecbd 8f04 aabd 66c2 00be
00000090: de57 fabd 78e6 9b3d 6e0d 58bd d56f 863d
000000a0: e6ac 4e3d 3c33 d4bd a3b0 debd 55ff 02be
000000b0: 587b 483c 9c01 c93d 77e3 cfbd b055 dcbd
000000c0: ce5b ae3d e327 1fbe e09e 073d 59f7 9cbd
000000d0: 8f27 95bd 04e5 85bd 4795 ddbc 8d70 f7bd
000000e0: 996b f1bc 870c babd 11d4 17bd 09fa 043d
000000f0: fff2 06bd 739a 853d b6c4 11be 1f7c 983d
00000100: 6306 a5bd 1a68 dbbd 1048 f13c 3d55 1bbe
00000110: aa3f 073d deb2 fcbd 23bb cf3c ad8f 873c
00000120: 8285 25bc d16a c93d 207a 86bd 0ea6 98bd
00000130: 8de9 49bd 8ea2 ca3c e6a5 8cbd ba31 9dbd
00000140: eae0 783d 64a3 ccbd 6840 9bbd 208d 95bc
00000150: 88a9 1d3c 9f8e 82bd 8196 26bc 4866 483d
00000160: b22c 55bd b994 d53c 2764 ecbd 2271 43bd
00000170: 7a48 133d efd6 833c b1fe d73c e34a f9bd
00000180: 6155 393c 13dd 7f3d a65b 783d 4bce a83d
00000190: dd45 293d d5cf f2bd 538d 3cbd 6d1c 373d
000001a0: ba1e 33be 3ad8 923d 1624 dbbd 7122 443d
000001b0: 0d00 953c 770f 1ebb b838 b73d e17a e33d
000001c0: 9407 92bd b3fc 943d c0f3 fdbd 85ec 7d3b
000001d0: 87af 7c3d 8f30 a6bd 4601 a4bd cad0 2b3d
000001e0: f94d 253d 7c8f f13c 8805 85bb 898c dabd
000001f0: bce9 0a3d 4f5e 0dbe 2bd9 8f3c 3443 523d
00000200: 4903 223a f3fe 6abd b92e c2bd 7f31 2f3c
00000210: e00e 5f3d a205 003d 3d6e 30bd 33f3 f6bd
00000220: e13e ee3b 829b 95bc 7abd 28bd a18d bbbd
00000230: bf18 e73d dac9 87bd c99c 5a3c bc61 3b3d
00000240: 54bb 2b3d bda2 cabd ec1a c5bc 303f a3bd
00000250: 7f37 dabd 14d2 933c 0832 87bc 041a aa3d
00000260: 1985 babc 928e ce3c 5cdb f9bd 0bdc d03d
00000270: 8ccf b33c c30e 13be 0874 b7bb 0f78 bcbd
00000280: 2cdf 5f3d 0b95 c1bd fa1a ac3d 039a 11be
00000290: cd32 c13d 37da f7bd 180a b9bd ea59 c03d
000002a0: 67b6 48bd dc49 c83d 7fa0 d6bd 4abf 7ebd
000002b0: 8645 35be 3a89 7abd d87d b6bd 5860 04bc
000002c0: 5418 383d 38c4 30bd c3b6 bc3c d860 aa3a
000002d0: a409 5c3d 0018 1cbe 0578 8cbc 5b56 5e3d
000002e0: 15ae 5bb9 92c0 b43c 66bd a23d 9bb0 c43d
000002f0: f4f8 463c 0509 003d bbf2 e83d 69ab 143e
00000300: b434 09be c786 e13d 651a ab3c fc31 683c
00000310: f984 3dbe fb86 1abd 48db 29bd 9617 57bc
00000320: 3166 0dbb d53c 12be fe29 d83a 2d11 0a3d
00000330: d78f c73c 4417 013b cafb f23d 32fa d9bb
00000340: a892 233d 1b93 703d 4d8b 7d3d 672d ea3c
00000350: a516 a63c 2d0d b0bc afb3 48bd 0e9b a2bd
00000360: 490a 0c3e db47 063e 6cb8 dabd 868b 02bd
00000370: 8d77 2d3d e026 58bd 21b8 8dbd d3ce a73c
00000380: 3dfe 2bbe 8b80 23bd c76e 12be 0849 e5bd
00000390: 8eb3 29be cff0 bdbb 367d b33c e7de ac3d
000003a0: 1923 78bd 8075 56bd 2e6b 15bd bf58 27bd
000003b0: 246f 003c 2f22 a33d 0ab7 eeba 358d 9bbb
000003c0: f0c5 3e3c 7c93 e7bd ceb5 823d 6033 863b
000003d0: da92 aebd 2bb0 e7bd bb3c 223d d2cd d8bd
000003e0: 8218 f03d d473 f9bd 147e 3abd 9f80 d8bc
000003f0: be4c 0bbe c9b3 8e3d 0740 95bd ef2f fdb9
-0.032044712 -0.03504311 -0.009596721 0.039276406 -0.07348621 0.05676067 -0.11553038 -0.004695201
0.08049476 -0.120630465 0.023741033 0.052196223 0.02313313 0.012011977 0.010751232 0.03312217
-0.07475032 -0.0084367795 0.06998937 -0.0662079 -0.06347627 -0.04310087 -0.03143085 -0.13495174
0.042502638 0.005514699 -0.027997602 -0.052533958 0.027534103 -0.1375454 0.0053258683 -0.0382161
-0.11296808 -0.11556284 -0.08301651 -0.12574157 -0.122237906 0.07612318 -0.052747183 0.06564299
0.050457858 -0.10361335 -0.108735345 -0.12792714 0.012236439 0.0981476 -0.10150807 -0.10758531
0.08513604 -0.1554256 0.0331105 -0.07664365 -0.07282936 -0.06537822 -0.02704872 -0.12082014
-0.029470252 -0.09084421 -0.037067477 0.032465015 -0.032946583 0.065235995 -0.14235196 0.07445549
-0.08057859 -0.10713215 0.029453307 -0.15169235 0.0330197 -0.12338804 0.025357788 0.016548002
-0.0101026315 0.09834827 -0.06566262 -0.074535474 -0.049294997 0.024735715 -0.0686758 -0.076755
0.06076137 -0.09992102 -0.07580644 -0.01825577 0.009622939 -0.06374859 -0.010167719 0.048925668
-0.052044578 0.026071893 -0.1154254 -0.047715314 0.03595779 0.0160937 0.026366564 -0.12172487
0.01131186 0.062466692 0.060634278 0.08242472 0.041326392 -0.11856047 -0.046033215 0.044704843
-0.1749219 0.07170148 -0.10700242 0.04788441 0.0181885 -0.0024118104 0.08946365 0.11107422
-0.07130352 0.07274761 -0.12400007 0.0038745713 0.061690833 -0.081147306 -0.080080554 0.041947164
0.040357564 0.029487364 -0.0040594973 -0.10671336 0.033914313 -0.13805507 0.017559608 0.05133362
0.0006180299 -0.057372045 -0.09481568 0.010692953 0.054457545 0.031255372 -0.04307388 -0.12058105
0.0072706793 -0.018262628 -0.041196324 -0.09157873 0.11284017 -0.06630297 0.013343045 0.045747504
0.041926697 -0.09894321 -0.024060689 -0.079710364 -0.10655116 0.018044509 -0.016503349 0.08305743
-0.022768544 0.025214467 -0.122000426 0.1019822 0.021949552 -0.143611 -0.005598549 -0.09202587
0.054656193 -0.09452256 0.08403583 -0.14218907 0.094335176 -0.12102168 -0.09035128 0.0939215
-0.049002077 0.097797126 -0.10479831 -0.062194146 -0.17702302 -0.061166026 -0.089107215 -0.008079611
0.044945076 -0.04315588 0.023036366 0.0012998832 0.05372013 -0.1524353 -0.017147074 0.054281574
-0.00020950318 0.02206448 0.07946281 0.09603997 0.012144316 0.0312586 0.11374422 0.14518513
-0.13399011 0.11012035 0.02088661 0.014172073 -0.18507756 -0.037726384 -0.04146889 -0.013128182
-0.0021575803 -0.14281018 0.0016492007 0.033707786 0.02436058 0.0019697705 0.11864431 -0.00665214
0.039934784 0.05873404 0.061900426 0.028586103 0.02027447 -0.021490658 -0.048999485 -0.079397306
0.13675798 0.13113348 -0.10679707 -0.03187134 0.04235034 -0.05277145 -0.069198854 0.020484364
-0.16796203 -0.03991751 -0.1430007 -0.1119557 -0.16572401 -0.005796529 0.021910291 0.08440953
-0.060580347 -0.05235815 -0.036479168 -0.04085612 0.007838998 0.079655044 -0.0018212509 -0.004747058
0.011643872 -0.11307427 0.06382333 0.00409548 -0.085241035 -0.11312898 0.0396087 -0.10586132
0.117234245 -0.121802956 -0.045530394 -0.026428519 -0.13603494 0.06967885 -0.07287603 -0.00048291634

bias f4 [32]
00000000: 31a5 f53b be6e 8cbd 3d4d 92bd 54e4 993d
00000010: 5e44 f63c ecd9 d73d 7521 94bd 20cd ccbc
00000020: eebd edb9 b824 a0bd 6457 4abd 9be7 e1bd
00000030: b58a b3bd 43e0 503d f62b 89bd 2092 853c
00000040: 07ce 56bd 7ad2 593d 074a 9a3d cba6 a33d
00000050: 7bd6 d0bd 56fe 8ebc ec7d 47bd 6e67 953d
00000060: 9f9d 49bd b287 d23d 04ef 173c a64f 2d3d
00000070: 39c5 d13d c906 703d 5f16 ed3a 3916 f6bd
0.007496499 -0.0685706 -0.07143638 0.07514253 0.030061897 0.10539612 -0.07232944 -0.025000155
-0.0004534567 -0.078195035 -0.04939975 -0.11030503 -0.08766691 0.050995123 -0.06697838 0.01630503
-0.052442577 0.05317924 0.07533651 0.079907976 -0.10197159 -0.017455261 -0.048704073 0.07295118
-0.049222585 0.10279788 0.009273294 0.042312287 0.10242695 0.05860022 0.0018088332 -0.120159574

weight f4 [32]
00000000: 49d9 763f 3614 703f a83d 6a3f 62f0 833f
00000010: e8cb 6e3f 0f09 6c3f f632 683f 926b 6d3f
00000020: eda3 743f 6e10 843f 1aa8 793f 59c7 7f3f
00000030: c018 893f 6fd8 773f 4c61 803f c89e 6f3f
00000040: 9a67 893f 93b8 703f 8e26 753f d046 7f3f
00000050: a86e 7d3f 60e2 863f 3aa2 6c3f 6a3a 703f
00000060: be2f 713f f3da 893f e626 833f 619f 783f
00000070: 6d41 7b3f ba70 7f3f b1f0 713f 1c5d 7d3f
0.964253 0.9378084 0.9150033 1.0307734 0.93279886 0.9220132 0.9070276 0.92742264
0.9556263 1.0317514 0.9752213 0.99913555 1.0710678 0.96814626 1.0029693 0.93601656
1.0734742 0.9403164 0.95761955 0.99717426 0.98996973 1.0537834 0.9243504 0.9383913
0.94213474 1.0769943 1.0246246 0.9711819 0.98146707 0.9978138 0.9450789 0.989702

bias f4 [32]
00000000: 72ea 14be d535 af3d f4ec fdbd bb52 dbbb
00000010: 640a 26be 95f4 12be 85de f5bd a369 91bd
00000020: 06c0 a9bc bbf8 03bd bad9 ab3d 526f 183d
00000030: f574 543d 6776 e9bd 3f20 3cbd 899a 8cbd
00000040: 7a4d 63bd af4d 0b3d 8cb0 f53b 6bed 26bd
00000050: adf3 bcbd 10db a0bd bbcb 2a3b 7973 19be
00000060: bc0f 7dbd 61c8 e8ba b1f6 8939 28f2 493d
00000070: ef24 1d3d b0a9 783d 161a d2bd d0fc cfbd
-0.14542559 0.085551895 -0.12398711 -0.006693212 -0.16214901 -0.14351113 -0.12005333 -0.07100227
-0.020721447 -0.03221963 0.083911374 0.03721554 0.05186935 -0.113995366 -0.04592919 -0.06865413
-0.05549381 0.03400963 0.0074978527 -0.040753763 -0.09226165 -0.07854283 0.0026061374 -0.14985456
-0.061782584 -0.0017759913 0.00026314476 0.049303204 0.0383653 0.0607087 -0.10258882 -0.10155642

running_mean f4 [32]
00000000: 82ae 2abf 2778 bfbe 92bb acbe 2d31 bdbe
00000010: 9622 14bf fe9f 87be cbe4 f7be 4759 f1be
00000020: 9d4f cabe 7a7d 11bf 7599 84be 6432 dbbe
00000030: 8f19 e1be 90b9 a0be 5dad 10bf dcac a4be
00000040: 67b2 1fbf 24f0 92be 3bea a8be c291 d4be
00000050: d7b3 edbe 9772 1fbf 5a45 cdbe 0a8a 17bf
00000060: a5c1 88be df18 c3be a949 acbe 044f 47be
00000070: 5008 3cbe 368a 7bbe 8dc4 23be 580b 1abf
-0.6667253 -0.37396356 -0.33736855 -0.3695158 -0.57865274 -0.26489252 -0.48416743 -0.47138426
-0.39513865 -0.5683209 -0.25898328 -0.42811882 -0.43964812 -0.31391573 -0.5651453 -0.3216313
-0.62381595 -0.28698838 -0.32991204 -0.41517454 -0.4642627 -0.62284225 -0.40091974 -0.59195006
-0.2671024 -0.38104913 -0.33649948 -0.19463736 -0.18362546 -0.24564442 -0.15992947 -0.6017356

running_var f4 [32]
00000000: a461 9d3f 97f4 633f f612 313f ef4c 953f
00000010: af3e 8b3f eaaa 043f 4adf 0d3f f03c 3e3f
00000020: 8162 4d3f 5204 9b3f 831c 2d3f c473 613f
00000030: 2269 823f 0038 313f be44 973f b800 203f
00000040: 712e b83f 8c4c 663f e872 5a3f 7bab 783f
00000050: 2c10 213f 9ee4 a83f 4e3e 3d3f 4288 a03f
00000060: 9397 0d3f c3e8 cb3f 5fb2 8f3f 50f2 323f
00000070: 0d19 c23e 64d6 7d3f 15e9 de3e beb4 623f
1.2295423 0.8904509 0.6916956 1.1664103 1.0878505 0.51823294 0.5541884 0.74311733
0.8022843 1.2110693 0.6762163 0.8806727 1.0188334 0.69226074 1.1817853 0.62501097
1.4389173 0.8996055 0.85331583 0.9713666 0.629153 1.3194768 0.73923194 1.2541583
0.5530941 1.5930408 1.122631 0.6990099 0.37909737 0.9915526 0.43537202 0.8855704

weight f4 [3, 32]
00000000: 8cfd 09be a2f5 c03d f711 9c3c 8331 0bbe
00000010: 41d5 1bbe ec63 3dbd fe11 743d aca4 1b3c
00000020: 03a7 d93d f37c 56bc 6abe 2dbb 11f4 7cbd
00000030: f380 efbc ba2e 25be ea8b 19be 2f05 113c
00000040: 155d 62be 7ee9 c33d f606 433c 1982 cbbd
00000050: 3888 d7bd 44e1 4bbe 44c6 903d 09e3 6fbe
00000060: 4802 cf3c fab6 79be 296e 0fbd e042 dbbc
00000070: d27e 323c f3bc ff3d a18c 8a3d c9b3 56bd
00000080: 2e46 443d 489b 8b3d 933c babd 35e7 de3c
00000090: 0435 083c ad8b a5bd d064 89bd 1e15 9ebd
000000a0: f54e 1c3d 5379 2c3e a57c 7ebc 5ab5 d7bd
000000b0: 1fb3 7fbd 76e2 c9bd e46c e03c 4177 9ebd
000000c0: 7af4 9bbd ee92 893d af63 45ba 61f2 bb3d
000000d0: 55b0 dabd 1a2d 6fbd 67af 3d3d 303c 0bbd
000000e0: a2c2 73bd ec3d b8bd 8819 003e 930d a3bd
000000f0: 566d 5a3d a678 a53d 7697 a3bd 7bd3 8cbb
00000100: 9a73 f73d c828 d8bc d292 72bd 18f0 423d
00000110: 42cc cb3d 0d40 a83d 54af a2bd 4c27 f8bd
00000120: 3833 ec3a b3d0 3e3e cc84 f8bd 2df6 42be
00000130: b270 1ebe 0e89 6c3c 4509 723d e728 e6bd
00000140: 9fab bfbc 1f4e 35bd b38c 02be 275b d63d
00000150: d4c4 673c 5b5f bc3b 8318 a6bd 94f3 3a3d
00000160: 5b1e 47bd a676 85bd 6457 163e a8a8 f9bd
00000170: 9830 91bd 7d9c 383b cda3 db3d 906b d83d
-0.13475627 0.09421851 0.019051535 -0.13593106 -0.15218069 -0.04623787 0.05958747 0.00949971
0.10627558 -0.013091314 -0.00265112 -0.061756197 -0.029236292 -0.16131106 -0.14994779 0.0088513335
-0.2210582 0.095660195 0.011903515 -0.099369235 -0.105240285 -0.19910151 0.07069066 -0.23426451
0.025269642 -0.24386206 -0.035017166 -0.026765287 0.010894494 0.12487211 0.06765104 -0.05241755
0.04791849 0.06816727 -0.09093585 0.027209857 0.008313421 -0.08083282 -0.067086816 -0.077188715
0.038161237 0.16843157 -0.015532647 -0.10532637 -0.062426683 -0.09857647 0.027395673 -0.0773759
-0.076149896 0.06717478 -0.00075298076 0.091770895 -0.10678164 -0.05839262 0.046309855 -0.033992946
-0.05951179 -0.08996186 0.1250974 -0.079615735 0.053326927 0.080796525 -0.07987873 -0.0042976714
0.12082596 -0.026386634 -0.05922205 0.047592252 0.099510685 0.08215342 -0.079435974 -0.1211687
0.0018020635 0.186343 -0.12134704 -0.19039221 -0.15472677 0.014436973 0.05909087 -0.1123827
-0.023397265 -0.044263955 -0.12748985 0.10466605 0.014146049 0.005748672 -0.08110144 0.04564245
-0.048612934 -0.06516771 0.14681774 -0.12190372 -0.07089347 0.0028169446 0.10724602 0.10567391

bias f4 [3]
00000000: 3dc0 7d3e b493 d23d 851f 043d
0.24780364 0.102820784 0.032256622
