project_ipynb/baseline_model.pth (torch, 12567 bytes, 8 tensors)

weight f4 [64, 22]
0	0x3f8fcb39	1.1233894
1	0x3ffff1bb	1.9995645
2	0xbe5ed884	-0.21762282
3	0x3e2ae09b	0.16687243
4	0x3f9fe46c	1.2491584
5	0x3f0d43eb	0.5518176
6	0xbec4b9bb	-0.3842295
7	0x3f880e17	1.06293
8	0xbeb03920	-0.34418583
9	0xbf3127d1	-0.6920138
10	0x3e99c209	0.3003085
11	0xbf45b752	-0.7723285
12	0xbd9382a6	-0.072026536
13	0xbec4e632	-0.38456875
14	0xbe3c348b	-0.18379419
15	0xbf090bb8	-0.53533506
16	0xbec3aeca	-0.3821929
17	0x3e054996	0.13016352
18	0x3e026759	0.12734737
19	0x3e041f2b	0.12902515
20	0x3e60104f	0.21881221
21	0xbed51bc2	-0.4162274
22	0x3f802c51	1.0013524
23	0xbfc7f783	-1.562241
24	0xbe8480f0	-0.25879622
25	0x3f185ae4	0.5951369
26	0xbc3a0640	-0.011354029
27	0x3f831505	1.024079
28	0xbe4e74f1	-0.20161797
29	0xbfcba16f	-1.5908641
30	0xbf822dab	-1.0170187
31	0xbe0bd680	-0.13656044
32	0x3d93d523	0.07218387
33	0x3e1154e9	0.14192547
34	0xbd775f40	-0.06039357
35	0xbf10cbd0	-0.56560993
36	0xbf3c02c6	-0.7344173
37	0x3e867eb1	0.26268533
38	0x3a643e8e	0.0008706831
39	0xbe1cd0bc	-0.15314001
40	0xbf3b7477	-0.73224586
41	0x3e07aadf	0.13248776
42	0xbe7165f8	-0.23574054
43	0x3df3e06d	0.1190804
44	0x3ef5e112	0.48023278
45	0xbfb638a1	-1.4236032
46	0xbedd43b9	-0.4321573
47	0xbf9c2714	-1.2199426
48	0x3f002f75	0.50072414
49	0xbf21a4af	-0.6314191
50	0x3f9f886d	1.2463509
51	0x3ed79f55	0.42113748
52	0x3f4eee77	0.8083262
53	0xbca7b2d0	-0.020471007
54	0x3e1b8975	0.15189154
55	0xbde5e8f3	-0.11226072
56	0x3e08a384	0.13343626
57	0xbefe2d18	-0.4964378
58	0xbd1b04a9	-0.03784624
59	0xbeeedfa6	-0.46655005
60	0xbf6c0514	-0.9219525
61	0x3e6e7eb3	0.2329052
62	0xbdb3dd55	-0.0878245
63	0xbd1d47b1	-0.03839845
64	0x3e71343a	0.23555079
65	0xbe3b4a98	-0.18290174
66	0xbf9d443c	-1.2286448
67	0xbfcbac42	-1.5911944
68	0xbca05998	-0.019573972
69	0x3f5567df	0.8336162
70	0xbe4af933	-0.19821624
71	0x3d67ffd1	0.05664045
72	0x3f0d2223	0.55130213
73	0xba29f6c4	-0.00064836093
74	0xbf125624	-0.5716269
75	0xbf524bdf	-0.8214702
76	0x3d5a24c4	0.05325772
77	0xbed1fd00	-0.41013336
78	0xbe36e127	-0.17859326
79	0x3f205659	0.62631756
80	0xbe841675	-0.25798383
81	0xbf2362cf	-0.63822645
82	0x3f03363d	0.51254636
83	0xbeff7b8a	-0.4989894
84	0xbedb5039	-0.42834643
85	0xbe4be11c	-0.19910091
86	0x3dfe3479	0.12412352
87	0x3e0d7b67	0.13816606
88	0x3f8b5cff	1.0887755
89	0xbfb3ee84	-1.4057164
90	0xbede167e	-0.43376535
91	0x3f20104e	0.6252488
92	0x3d51537d	0.05110501
93	0x3f93826b	1.1524175
94	0xbd0497e4	-0.032371417
95	0xbfa2ebc2	-1.2728198
96	0xbf4dde97	-0.8041777
97	0x3dcafc18	0.09911364
98	0xbcb8670c	-0.022510074
99	0xbcc7d75e	-0.024394687
100	0x3ef3a63f	0.47587773
101	0xbe8e93fa	-0.27847272
102	0xbe5be889	-0.21475424
103	0x3e390712	0.18069103
104	0xbdbf908e	-0.093537435
105	0xbf613694	-0.87973905
106	0xbd9c6d81	-0.07638074
107	0xbeb3d2dd	-0.35121813
108	0x3e5b2c87	0.21403705
109	0x3d86bd1b	0.06579038
110	0x3e9af339	0.3026369
111	0xbeaf8381	-0.34280017
112	0xbf9809b8	-1.1877966
113	0x3f40dfba	0.7534138
114	0x3ebaf597	0.36515495
115	0xbd62a57d	-0.055333603
116	0xbd12419f	-0.035707112
117	0xbe90b930	-0.28266287
118	0x3f2b6b75	0.6696084
119	0x3f343cce	0.7040528
120	0xbe24a17d	-0.16077228
121	0x3ddb67f7	0.10713189
122	0xbf5dbfde	-0.8662089
123	0xbe953823	-0.2914439
124	0xbe209144	-0.15680414
125	0x3d98836c	0.07446942
126	0xbe82d132	-0.25550228
127	0x3e9e2ab2	0.3089195
128	0xbdff3d32	-0.12462844
129	0xbf836a58	-1.0266829
130	0x3e157f4f	0.14599346
131	0x3e93ec76	0.28891343
132	0x3df6d00b	0.120514
133	0xc080f0b9	-4.029385
134	0x3e58d19a	0.21173707
135	0x3ec76bad	0.38949338
136	0xbf4fbba6	-0.81145704
137	0xbc02c633	-0.007981825
138	0xbf4b6dc1	-0.79464346
139	0x3f688dcd	0.9084137
140	0x3f0db23a	0.5535008
141	0x3e196243	0.1497889
142	0x3d486e9c	0.04893361
143	0x3dca4cfa	0.09877963
144	0x3bb8576c	0.005625656
145	0x3cb450d7	0.022011204
146	0xbde1783c	-0.11009261
147	0xbe69f42e	-0.22847053
148	0xbddb7018	-0.107147396
149	0xbc503b42	-0.012709441
150	0xbdb66cdb	-0.08907481
151	0x3e0713d9	0.13191165
152	0xbe7cf2ae	-0.2470195
153	0xbd99761b	-0.0749323
154	0xbe875933	-0.2643524
155	0x3e30278f	0.1720259
156	0x3e6b2394	0.2296279
157	0xbf4739d4	-0.77822614
158	0x3f0b5928	0.54432917
159	0x3e8ad165	0.2711288
160	0xbe8c7204	-0.27430737
161	0xc04efc8f	-3.234165
162	0x3e31dedd	0.17370172
163	0x3d90b36c	0.07065472
164	0x3ad929c8	0.0016568238
165	0x3d452811	0.048133913
166	0x3cd97937	0.026547058
167	0xbe41f7a9	-0.18942131
168	0xbe386fcc	-0.18011397
169	0xbd5c3df2	-0.053770013
170	0x3cd3baec	0.025845967
171	0x3d65bdca	0.0560892
172	0x3e502c82	0.20329478
173	0x3da21285	0.079136886
174	0x3d2e2986	0.04252007
175	0xbe071808	-0.13192761
176	0x3e340aed	0.17582293
177	0xbf98ed0b	-1.194734
178	0x3df5e171	0.1200589
179	0x3dc7fe23	0.097652696
180	0xbe54d15c	-0.2078299
181	0xbff8a031	-1.9423887
182	0x3e973735	0.29534307
183	0x3f6abb6f	0.9169225
184	0x3ef42f70	0.47692442
185	0x3e9f26e1	0.3108435
186	0xbf05b23d	-0.52225095
187	0x3ec8eeb3	0.39244613
188	0x3dfb771a	0.12278576
189	0xbde60667	-0.1123169
190	0xbe7a6a75	-0.24454673
191	0xbd1b0076	-0.037842236
192	0x3c7abec3	0.01530427
193	0x3de12b08	0.10994536
194	0x3d587e8c	0.05285506
195	0xbe2d4490	-0.16920686
196	0xbd5dbd10	-0.054135382
197	0xbe0daaba	-0.13834658
198	0x3db541d3	0.088504456
199	0xc021f03f	-2.5302885
200	0x3f6781a8	0.90432215
201	0x3f6f98a7	0.93592304
202	0xbf4f0e2c	-0.80881
203	0x3f8c6b50	1.0970249
204	0xbe652de8	-0.22380793
205	0xbf0976ef	-0.53697103
206	0xbed72713	-0.42022
207	0x3f270509	0.6524206
208	0xbe23dcf6	-0.16002259
209	0xbe958938	-0.29206252
210	0xbde22c4f	-0.110436074
211	0xbf07ccfb	-0.5304715
212	0xbdd507bd	-0.104018666
213	0xbd973154	-0.073824555
214	0xbea764bc	-0.32694042
215	0x3e629433	0.22126846
216	0xbe389734	-0.1802643
217	0x3e482463	0.1954513
218	0x3ddfd067	0.109284215
219	0x3d90caea	0.07069953
220	0x3fac11ba	1.344291
221	0xbfa51509	-1.2897044
222	0xbf541f59	-0.8286033
223	0x3f913443	1.1344074
224	0xbe6ac1ad	-0.22925444
225	0x3f86d3b9	1.0533363
226	0xbe05509d	-0.13019033
227	0x3ecc59b7	0.39912197
228	0xbcd6edc5	-0.026236424
229	0xbe95b86e	-0.2924227
230	0x3e29ca09	0.16580977
231	0xbe31f479	-0.17378415
232	0xbe0e5503	-0.13899617
233	0xbe104123	-0.14087348
234	0xbeebbe39	-0.46043566
235	0xbe9b8021	-0.30371192
236	0x3e69685f	0.2279372
237	0xbeaee498	-0.34158778
238	0xbf3c66b8	-0.73594236
239	0x3f143983	0.57900256
240	0xbe2f1c04	-0.17100531
241	0x3c141f8e	0.009040726
242	0xbfbc1f02	-1.4696963
243	0x3f220a3f	0.63296884
244	0x3e3db3de	0.18525645
245	0x3e4e89ce	0.20169756
246	0x400a0856	2.1567588
247	0x3f543e36	0.82907426
248	0x3e0cd532	0.13753203
249	0x3dd91c84	0.10601142
250	0xbd6155dc	-0.055013523
251	0xbbf7fec6	-0.007568213
252	0xbeb99f60	-0.36254406
253	0xbe05864b	-0.1303951
254	0xbd4db1d0	-0.050218403
255	0xbef1e462	-0.47244555

bias f4 [64]
0	0x3e946df3	0.28990135
1	0x3e309319	0.17243613
2	0x3f1270be	0.5720328
3	0x3df193f6	0.117957994
4	0xbdeae057	-0.11468571
5	0x3ec3ade4	0.38218606
6	0x3edcc5a6	0.43119544
7	0x3d9bde34	0.07610741
8	0x3f70c9a6	0.9405769
9	0xbea7cbb8	-0.32772613
10	0xbf04a2cd	-0.51810914
11	0xbe815d59	-0.2526653
12	0xbf340f6b	-0.70336026
13	0xbf1e7208	-0.6189275
14	0x3d17c273	0.037050676
15	0x3dfb3aad	0.12267051
16	0x3c87a78b	0.016559383
17	0xbf09c072	-0.53809273
18	0xbd9dcf30	-0.077055335
19	0xbe98af00	-0.29821014
20	0x3e593eab	0.21215312
21	0xbdae9cd3	-0.085260056
22	0xbf451466	-0.7698425
23	0x3f4969df	0.7867717
24	0xbbfc2505	-0.0076948428
25	0x3b0b03e6	0.002121204
26	0xbf1c9078	-0.6115794
27	0x3d497524	0.04918398
28	0xbdfc9e9f	-0.12334942
29	0xbe1a8e81	-0.15093423
30	0xbefb61cd	-0.49098054
31	0x3eed8a14	0.46394408
32	0xbe2c3876	-0.16818413
33	0x3f40af6d	0.7526768
34	0xbd963d23	-0.0733588
35	0xbf190d19	-0.5978561
36	0x3e94bf99	0.29052427
37	0x3ed7b9cb	0.42133936
38	0xbf91730e	-1.1363237
39	0xbf1b3dfb	-0.6064145
40	0x3c24431e	0.010025768
41	0xbe99c6e9	-0.3003457
42	0x3de17325	0.1100829
43	0x3f3f655b	0.7476403
44	0xbea36abe	-0.31917375
45	0x3c4392a4	0.011936817
46	0x3ea01135	0.31263128
47	0xbe859975	-0.2609364
48	0x3e9a74a2	0.3016711
49	0xbe801019	-0.25012282
50	0xbe6bc0d8	-0.23022783
51	0xbe11e017	-0.1424564
52	0xbe2af2f0	-0.16694236
53	0x3edbf164	0.42957604
54	0x3e301be7	0.17198144
55	0xbf02cf96	-0.51098
56	0x3daea23f	0.0852704
57	0xbf254e43	-0.6457254
58	0x3ef3b9aa	0.47602588
59	0xbef4e46a	-0.47830516
60	0x3dd55321	0.10416246
61	0x3e3b1e1a	0.18273202
62	0xbe73a91b	-0.23794977
63	0xbf075912	-0.52870286

weight f4 [64]
0	0x3f7e630e	0.99369895
1	0x3f88caee	1.0686929
2	0x3f897dbd	1.0741497
3	0x3f7e315f	0.99294084
4	0x3f9d6a4f	1.2298068
5	0x3f8140ef	1.0097941
6	0x3f802694	1.0011773
7	0x3fb0db30	1.3816891
8	0x3f88004c	1.0625091
9	0x3f5fee21	0.8747273
10	0x3f886cdd	1.0658222
11	0x3f826f91	1.0190297
12	0x3f9baeb8	1.2162695
13	0x3fabd3e5	1.342404
14	0x3f83ee9b	1.0307192
15	0x3f8bd689	1.0924846
16	0x3f9659cd	1.1746155
17	0x3f7ca2ca	0.98685896
18	0x3f8e2181	1.1103975
19	0x3f870333	1.0547851
20	0x3f843eb4	1.0331635
21	0x3f87cd23	1.0609478
22	0x3f624a18	0.8839431
23	0x3f8a6243	1.0811237
24	0x3f714515	0.94246036
25	0x3f833ac9	1.0252315
26	0x3f8e9661	1.1139642
27	0x3f778276	0.9668344
28	0x3f7b152a	0.9807917
29	0x3f9e070c	1.23459
30	0x3f8e9b93	1.1141227
31	0x3fa1ffc9	1.2656184
32	0x3f8705ec	1.0548682
33	0x3f893375	1.0718828
34	0x3f9541e9	1.1660739
35	0x3f665f37	0.89989036
36	0x3f88a49e	1.0675237
37	0x3f7a3a4e	0.97745216
38	0x3fa2502c	1.2680717
39	0x3f8ef9d1	1.1169988
40	0x3f872507	1.0558175
41	0x3f94654e	1.1593416
42	0x3f8b3c0b	1.0877699
43	0x3f896635	1.0734316
44	0x3f926d7e	1.1439664
45	0x3f80d6d3	1.0065559
46	0x3f8ee569	1.116376
47	0x3f7d5401	0.98956305
48	0x3f81d9c5	1.0144583
49	0x3f8ddfa8	1.108388
50	0x3f86c04e	1.0527437
51	0x3f7ab680	0.9793472
52	0x3f8cdaef	1.1004313
53	0x3f8ff796	1.1247432
54	0x3f95f1e6	1.1714447
55	0x3f88f1bb	1.069877
56	0x3f848fd1	1.0356389
57	0x3f940f30	1.1567135
58	0x3f7b749a	0.98224795
59	0x3f933bc6	1.1502616
60	0x3f75cd78	0.96016645
61	0x3f89b80c	1.0759292
62	0x3f71ada6	0.9440559
63	0x3f85493d	1.0412976

bias f4 [64]
0	0xbe755191	-0.23956896
1	0xbed611d4	-0.41810477
2	0xbe714908	-0.23563015
3	0xbec43889	-0.38324383
4	0xbe9f913b	-0.3116549
5	0xbe7d0918	-0.247105
6	0xbef06c88	-0.46957803
7	0xbe6649e4	-0.22489125
8	0x3e418b53	0.18900804
9	0xbf0c72c1	-0.548626
10	0xbe2c6176	-0.16834053
11	0xbeab8b4d	-0.33504716
12	0xbdf6ee1e	-0.12057136
13	0xbee124dd	-0.43973437
14	0xbe63f36f	-0.22260831
15	0xbe89f9f5	-0.26948515
16	0xbf0eb77d	-0.5574873
17	0xbdb1ef0a	-0.08688171
18	0xbe83237f	-0.2561302
19	0xbf0f9057	-0.5607962
20	0xbe9d6e39	-0.30748156
21	0xbed4d657	-0.41569778
22	0xbf31b219	-0.6941238
23	0x3d36d6eb	0.044638555
24	0xbe9928d8	-0.29913974
25	0xbf03cef5	-0.51487666
26	0xbed177a6	-0.40911597
27	0xbe991acb	-0.29903254
28	0xbef72c53	-0.48276004
29	0xbe9db3f8	-0.30801368
30	0xbe157f13	-0.14599256
31	0xbed72ad7	-0.42024872
32	0xbe251292	-0.16120365
33	0xbe7762db	-0.24158804
34	0xbe7cdea7	-0.2469431
35	0xbeeb76a6	-0.4598896
36	0xbefdfa2d	-0.4960493
37	0xbd28810f	-0.041138705
38	0xbdbc5dcc	-0.09197578
39	0xbe4909de	-0.1963267
40	0xbe1bfe58	-0.15233743
41	0xbe8c0296	-0.27345723
42	0xbe489bd9	-0.19590701
43	0xbf0aa796	-0.54161966
44	0xbed8cf22	-0.4234553
45	0xbeb71a46	-0.35762233
46	0xbd6a9229	-0.057268295
47	0xbe85714e	-0.26063007
48	0xbef86115	-0.48511568
49	0xbea20b7a	-0.3164938
50	0xbeadf2c1	-0.3397427
51	0xbef3d181	-0.47620776
52	0x3e35ead0	0.17765355
53	0xbef566eb	-0.47930083
54	0xbdf1dbff	-0.11809539
55	0xbed9ddcc	-0.4255203
56	0xbe9f8be2	-0.3116141
57	0xbf375a56	-0.71622217
58	0xbe4f103d	-0.20221038
59	0xbeda9384	-0.4269067
60	0xbe888d8b	-0.2667049
61	0xbefe9869	-0.49725655
62	0xbecff6e2	-0.40618044
63	0xbe384df9	-0.17998494

running_mean f4 [64]
0	0x3f689bab	0.9086253
1	0x3ec32c09	0.38119534
2	0xbe2c057f	-0.16798972
3	0xbf4d4b24	-0.8019278
4	0x3ea84f7b	0.3287314
5	0x3ef5e290	0.48024416
6	0x3eda19ec	0.42597902
7	0xbe08c967	-0.13358079
8	0x3e91ba9d	0.28462687
9	0x3f6d26f5	0.9263757
10	0x3ed960b5	0.42456594
11	0xbe011aa3	-0.12607817
12	0xbe5476b8	-0.20748413
13	0xbe9aa811	-0.3020635
14	0xbec2cf20	-0.3804865
15	0x3f2c0739	0.6719852
16	0x3f3f3101	0.7468415
17	0x3ebe843e	0.37210268
18	0x3f4b3352	0.79375184
19	0xbb5500e8	-0.003250176
20	0x3efb684b	0.49103007
21	0xbfb19b66	-1.3875549
22	0xc03926b0	-2.8929863
23	0xbeb4990c	-0.35273015
24	0x3e6db260	0.23212576
25	0x3fd7383e	1.6814039
26	0xbedd0156	-0.43165082
27	0xbfa7c014	-1.3105493
28	0xbe300c13	-0.17192106
29	0xbf52663e	-0.8218726
30	0x3c9b60f7	0.018967135
31	0xbea5f513	-0.3241354
32	0x3db7378c	0.089461416
33	0xbfaf0a45	-1.3675009
34	0xbf150baa	-0.5822092
35	0xbd67d896	-0.056603037
36	0x3f418351	0.75591
37	0x3ea1616e	0.31519645
38	0xbf698bc3	-0.91228884
39	0xbeebeaf5	-0.46077695
40	0x3e873c5b	0.26413235
41	0xbf1f1534	-0.6214173
42	0x3f562f73	0.8366615
43	0xbf9b18e4	-1.2116971
44	0x3f4a8a7c	0.7911756
45	0x3eaf30f6	0.34217042
46	0x3de5104b	0.11184748
47	0x3f1e27f4	0.61779714
48	0x3f4bfb8e	0.79680717
49	0xbee11a5c	-0.43965423
50	0x3e52e7bb	0.2059621
51	0xbe343cf8	-0.17601383
52	0xbe3b43bd	-0.18287559
53	0xbf52afb3	-0.82299346
54	0x3f93ac8f	1.1537036
55	0xbf48c3ce	-0.78423774
56	0x3f00b7e7	0.5028061
57	0x3f66ce9c	0.9015901
58	0xbe674081	-0.225832
59	0x3f2bb14c	0.6706741
60	0xbf20dcea	-0.6283709
61	0x3f1260f7	0.57179207
62	0xbc9bad3f	-0.019003509
63	0xbe281cdc	-0.16417259

running_var f4 [64]
0	0x3e84d658	0.2594478
1	0x3e4e5f46	0.20153531
2	0x3e79a360	0.24378729
3	0x3e7be4f5	0.24599059
4	0x3e57978d	0.21053906
5	0x3e89ab07	0.26888296
6	0x3e178063	0.1479507
7	0x3e33a3bd	0.1754293
8	0x3e3c3d9f	0.18382882
9	0x3e142e64	0.14470822
10	0x3e813ffa	0.25244123
11	0x3e507c7d	0.20359989
12	0x3dc5cd0e	0.09658252
13	0x3e97d835	0.2965714
14	0x3e7b762d	0.24556799
15	0x3eb2af69	0.34899452
16	0x3e886b65	0.26644436
17	0x3e8fa5f8	0.28056312
18	0x3eb730d9	0.35779455
19	0x3e9a5315	0.30141512
20	0x3e103dcb	0.14086072
21	0x3e9c8bb3	0.30575332
22	0x3ec3bf13	0.38231716
23	0x3e61b680	0.22042274
24	0x3e8cf4f2	0.27530628
25	0x3e78fae8	0.24314463
26	0x3ed63689	0.41838482
27	0x3e309b47	0.17246734
28	0x3e2089e4	0.15677601
29	0x3de25ee8	0.11053258
30	0x3e8b55fe	0.27214044
31	0x3e8432fe	0.25820154
32	0x3e58a42c	0.21156377
33	0x3e7f6485	0.24940689
34	0x3e312dbd	0.17302604
35	0x3dfa889d	0.12233088
36	0x3ed3f61a	0.41398698
37	0x3e49d07e	0.1970844
38	0x3e2826f2	0.16421106
39	0x3e787c76	0.24266228
40	0x3e2eddc2	0.17076781
41	0x3e2f3297	0.17109142
42	0x3e631862	0.2217727
43	0x3e7d6fbd	0.24749656
44	0x3e576ca2	0.21037534
45	0x3e1af5cf	0.15132831
46	0x3e635ce2	0.222034
47	0x3e42c687	0.19021045
48	0x3e8f3224	0.27967942
49	0x3e389ee6	0.18029365
50	0x3e2c7288	0.16840565
51	0x3eb0b390	0.34511995
52	0x3e7471bf	0.23871516
53	0x3e8aaa7e	0.270832
54	0x3e9908e8	0.29889607
55	0x3e5d29dd	0.21598001
56	0x3e7ce1e9	0.24695553
57	0x3e8740ee	0.26416725
58	0x3ea9b2f4	0.33144343
59	0x3e842995	0.25812975
60	0x3e95df46	0.29271907
61	0x3e210a2b	0.15726535
62	0x3e663bbe	0.22483727
63	0x3e87825d	0.26466647

weight f4 [3, 64]
0	0x3e13b871	0.14425828
1	0x3ea191d4	0.3155657
2	0xbe784625	-0.24245508
3	0xbf54ee20	-0.8317585
4	0xbf922abd	-1.1419293
5	0x3f562614	0.8365185
6	0x3f0e0b20	0.55485725
7	0x3f88b6ca	1.0680783
8	0x3efba40f	0.49148604
9	0x3e4bc357	0.19898735
10	0x3e88a6b6	0.2668969
11	0xbf693e1a	-0.91110384
12	0xbf6b4379	-0.9189983
13	0x3fa482cc	1.2852416
14	0xbf30caa1	-0.6905919
15	0xbf2f52cf	-0.6848573
16	0x3f8d632d	1.1045891
17	0xbf65b06a	-0.8972231
18	0xbf875e21	-1.0575601
19	0xbf9cc62f	-1.2247981
20	0xbf76a41c	-0.9634416
21	0x3f8e8e97	1.1137265
22	0xbf91cfea	-1.1391575
23	0x3f2d5dcd	0.67721254
24	0x3efdcd6e	0.49570793
25	0xbf92fe54	-1.1483865
26	0x3f6e5af9	0.93107563
27	0xbea8dcd6	-0.32980984
28	0xbf20e19e	-0.62844265
29	0x3f6133fa	0.87969935
30	0xbf850a55	-1.0393778
31	0x3eafd208	0.3433993
32	0x3ee2210c	0.44165838
33	0x3ed29862	0.41131884
34	0xbf1aa0ae	-0.6040143
35	0xbf2bc0d8	-0.6709113
36	0x3f751de5	0.9574874
37	0xbe924640	-0.28569221
38	0xbe96a401	-0.29422
39	0xbf1de9b0	-0.61684704
40	0x3ec54c41	0.3853474
41	0xbf501f58	-0.81297827
42	0x3f77998c	0.9671867
43	0x3eef5420	0.4674387
44	0xbf6bc08d	-0.92090684
45	0x3f6f7d63	0.935507
46	0x3f3b53c8	0.73174715
47	0x3f023daf	0.5087537
48	0x3f9ccbd2	1.2249701
49	0xbf60cef6	-0.878158
50	0x3f28baa0	0.6590977
51	0xbf93ac83	-1.1537021
52	0xbed39b84	-0.41329587
53	0xbf802c19	-1.0013458
54	0x3f62c901	0.8858796
55	0xbf81fc33	-1.015509
56	0x3f3616ac	0.71128345
57	0xbfc1d3c0	-1.5142746
58	0x3ea35c6f	0.3190646
59	0x3fa09f6c	1.2548652
60	0x3e741a0d	0.23838063
61	0xbf6c2f1e	-0.92259395
62	0x3e229975	0.15878852
63	0x3f413988	0.7547841
64	0x3f4b97f3	0.7952873
65	0x3f830a13	1.023745
66	0x3f3ed0c5	0.7453731
67	0xbf01475f	-0.5049953
68	0x3ef0487f	0.4693031
69	0xbeabafb8	-0.335325
70	0x3f1cc252	0.6123401
71	0x3d5b39ec	0.053522035
72	0x3e84144e	0.2579674
73	0xbf950d2d	-1.1644646
74	0xbf657ee4	-0.89646745
75	0xbeccf653	-0.4003168
76	0x3f119762	0.56871617
77	0xbf1e41f1	-0.6181937
78	0xbf2ddda0	-0.679163
79	0xbeea93cf	-0.45815894
80	0xbf122839	-0.57092625
81	0x3e0645b4	0.13112527
82	0xbad3a7f8	-0.0016148081
83	0x3ee7ba21	0.45259193
84	0x3d8b24a6	0.067940995
85	0xbee532fc	-0.4476546
86	0x3f2dd630	0.6790495
87	0xbf26dfea	-0.65185416
88	0x3ee4cfba	0.44689733
89	0x3e12d125	0.14337595
90	0x3eeb5021	0.4595957
91	0xbf4cee95	-0.8005155
92	0xbf3a27cc	-0.72716975
93	0x3dd2f0ee	0.1029986
94	0xbdc8d546	-0.09806304
95	0x3fae9980	1.3640594
96	0xbf57f58a	-0.8435904
97	0xbf618bf4	-0.88104177
98	0xbf03a88f	-0.51429075
99	0xbf44e795	-0.76915866
100	0xbf1b37ec	-0.60632205
101	0xbf166487	-0.5874714
102	0xbf328a44	-0.69742227
103	0x3f5f7b94	0.8729794
104	0xbf5c2f07	-0.8600926
105	0xbedd6884	-0.43243802
106	0x3ddc6baa	0.10762723
107	0x3f3a1b17	0.72697586
108	0x3f397459	0.7244316
109	0xbeee3083	-0.46521387
110	0x3ea9e4cd	0.33182374
111	0x3f276783	0.6539232
112	0x3dc89bcc	0.09795341
113	0xbf180762	-0.59386265
114	0x3f355608	0.708344
115	0x3eaf1f7c	0.34203708
116	0x3f403e4b	0.7509505
117	0x3f503ec2	0.8134576
118	0xbed95829	-0.42450073
119	0x3f2c2225	0.672396
120	0x3eff2f3c	0.49840724
121	0x3f7dccb8	0.991405
122	0x3f318f4c	0.6935928
123	0xbeb98bf4	-0.36239588
124	0xbf5ad866	-0.8548645
125	0xbefedc25	-0.49777332
126	0x3f41091f	0.7540454
127	0xbf19b440	-0.60040665
128	0xbf5c403d	-0.8603552
129	0xbf7289f4	-0.9474175
130	0xbf391aeb	-0.723067
131	0x3f70137f	0.9377975
132	0x3f001308	0.5002904
133	0xbf367b51	-0.71281916
134	0xbfa7dd11	-1.3114339
135	0xbf9d0d2a	-1.2269642
136	0xbf38ffba	-0.7226521
137	0x3f70a64a	0.94003737
138	0x3f0d6511	0.5523234
139	0x3f6be789	0.9215017
140	0x3e1a4416	0.15065035
141	0xbe9e7125	-0.30945697
142	0x3f665067	0.89966434
143	0x3f8850d6	1.0649669
144	0xbebef1fc	-0.37293994
145	0x3eddf81b	0.43353352
146	0x3f2f9311	0.6858378
147	0x3f267d1a	0.6503464
148	0x3f434101	0.76271063
149	0xbef2c4e8	-0.47415853
150	0x3f8143bd	1.0098797
151	0x3cb592b5	0.022164682
152	0xbf7ce08e	-0.98780143
153	0x3f5a61ca	0.85305464
154	0xbfa6d9d8	-1.3035231
155	0x3f734c4f	0.9503831
156	0x3f9f1870	1.2429333
157	0xbf86c31f	-1.0528296
158	0x3f3557ed	0.7083729
159	0xbfeda4df	-1.856594
160	0x3ebd06ca	0.36919242
161	0x3f034f9d	0.51293355
162	0x3f8798ec	1.0593543
163	0x3f8b8154	1.0898843
164	0xbd5dda6b	-0.054163378
165	0x3f4216bc	0.7581594
166	0x3f8ec3d5	1.1153513
167	0xbecb6bb2	-0.39730603
168	0x3f1d2855	0.61389667
169	0x3f8b23a6	1.0870254
170	0xbf4f35e6	-0.8094162
171	0xbfbc17e6	-1.4694793
172	0xbda67290	-0.0812732
173	0xbf35be58	-0.70993567
174	0xbf4dd31c	-0.8040025
175	0xbf756b55	-0.958669
176	0xbf7746c1	-0.96592337
177	0x3f837d0a	1.0272534
178	0xbf90d3dd	-1.1314656
179	0x3eca219a	0.3947876
180	0xbebf54b8	-0.37369323
181	0xbd52f85a	-0.051506378
182	0xbecf15c2	-0.40446287
183	0x3ee2a21b	0.44264302
184	0xbf7ed793	-0.9954769
185	0xbcf820c4	-0.030289061
186	0xbf4af375	-0.79277736
187	0xbef99466	-0.48746032
188	0x3f1e5293	0.6184475
189	0x3f9ea7c0	1.2394943
190	0xbf80acf3	-1.005278
191	0xbe4a26eb	-0.19741409

bias f4 [3]
0	0xbeaaeea9	-0.33385208
1	0x3ef60adb	0.48055157
2	0xbe29bb11	-0.16575266
