DataProcessing&Analysis/model_baseline.pth (torch, 12567 bytes, 8 tensors)

weight f4 [64, 22]
00000000: 644f 8c3e 6f57 11c0 84d5 c9be d385 9a3f
00000010: 3220 2b3e 56ef c43e 53b4 25bf f9fe 9fbf
00000020: a741 96bf 7d3a 15bf 08a5 4dbe f675 233d
00000030: 4b69 68bd cde3 5fbe 14df 2dbe abf1 ff3d
00000040: f50e 8d3e 8cd4 9dbe a16b 273d 950d c1be
00000050: 5256 e73e 590e e7be 7def b93d fcd6 09c0
00000060: dfa3 d2be a9d0 193f b131 62be 36f7 f5bd
00000070: 5b1c 113f 3265 8a3f 1580 cebe 4ee6 11bf
00000080: e91b fc3d b73e 613e 10f4 37be 0872 613e
00000090: 695c 19be 0ba2 c3bd 7b82 60bd 69b9 dd3d
000000a0: d141 193f 6372 92be 30b5 9a3e b623 a9bf
000000b0: 8aa7 af3f 7b9c 14be acd9 b73d d5cc f2be
000000c0: ccb7 07bf bd4c bd3f 0437 3a3f b72f 7c3f
000000d0: 28dc 2e3c d6f7 32bf f94a fdbe d83c adbe
000000e0: 5839 d6bd f8f0 aabe 2df8 9bbe 5d02 843e
000000f0: 1335 d5be 9e68 713e ee48 1dbe e7c5 5e3e
00000100: da35 a1bd 98a0 27bf 048a b33f 8e41 283f
00000110: fc8d 8ebd 6ffc bfbe 11c6 303d 70f6 85bf
00000120: 4071 cfbe 72fb 49bf bf5b 55be 17a1 d83e
00000130: 0fc4 ed3e 15ce 34bf 7213 8cbe 8bcf 20be
00000140: 1189 94bf 2100 02bf 6328 9f3d ca0b 8abe
00000150: dd93 a83e 653e 2abf 6eeb a23e 1b75 793e
00000160: 912b fbbc f48b b33d 05d6 bd3e 8a65 9b3d
00000170: 82ac 95bf 757e c4bf 66d4 be3f efd2 bb3e
00000180: 60a0 0d3f 3b2b 1cbe a520 bebb 9e1f 88be
00000190: 8848 a43d be83 afbe 75a7 d1be 68af f3be
000001a0: fbcf c43e 34e4 29bd 8fb5 6dbe 1f94 1a3e
000001b0: 6aab 0bbf 0f2d 4c3d 886d 343f 0769 83bf
000001c0: 0a97 c43f 96c1 26bf 9823 c5bd b32d b53f
000001d0: 92ea 273f 9e28 653e 870a 4b3c f6d2 0d3f
000001e0: 2819 e83d a055 ca3d ef02 4cbd 4c12 93be
000001f0: 0cbf 1f3d a0bb 59be 03a0 743d 5298 2dbe
00000200: 327d aabd a045 0a3e b139 9bbe ec44 77bd
00000210: 0a6f 05bf cb59 00c0 af6e 153f 8e34 f6be
00000220: c1e0 2a3f dd30 23bf 0eff ac3f 8148 1b3f
00000230: c8a4 fa3e 3a11 0dbe e25b 123e 2287 c43d
00000240: 3ec0 42bf 316f 07bf 7642 f3bd f9d4 f9be
00000250: 69cb 0cbf 1ed6 963d 967e 983d 1f19 6f3e
00000260: 0348 db3d b793 563e a79a 1bbf 854c 4b3f
00000270: 8289 39bf 39ec 543f c714 b53f 95f1 05be
00000280: 41fd 9a3e acde 493d 9736 3c3f a75a 053f
00000290: 29a3 133e e713 f43d 0ebb 2ebf 921a d83e
000002a0: 9d5f 63be 8ada a63e fd65 7fbf 1e0f a2be
000002b0: fec6 23be 8add 50bd 2bdb 063e 0e8c 56bf
000002c0: 5b5c be3a 980e 8fbf 6458 8c3f 912a 383f
000002d0: 32fe 063f 117a 11bf fbc5 95bf bf4a dabe
000002e0: e6ce 1bbf ed0a c6bd c992 bc3d bffc 91bd
000002f0: cd90 40bf df21 b4be 2f25 3ebf 097a 2c3e
00000300: 7608 14bf cab0 01bf 967f f5be dd18 02bf
00000310: d12c c33e c5a2 ff3e 9e25 fc3f f01b cbbc
00000320: cf3e 273f cda3 8abe 8491 19be 5b4d cc3f
00000330: a57e 1e3f 0194 2ebe a4bc 38bf a6ca a5be
00000340: a8f1 dabe a309 5ebe a574 423e 29e6 8dbd
00000350: 273c 9fbe a3ac 2f3e e04a d6be 8899 593e
00000360: 9795 54be 613c 563e 463d 773c 9caa 52bf
00000370: f2dc 9a3e 5a54 cebe b714 723c 82be b9be
00000380: 3546 afbe 11f3 b5bd 52b3 dc3f 1dcc 603f
00000390: 28d9 bf3e 3de3 ce3e ccfc a7be 7a9c 433e
000003a0: 0cf3 033e 8aaa 123d ca2f 533e 5a6d 503e
000003b0: ac7b 8abf 5671 a4bf 40b0 22bd 6730 a33d
000003c0: a2a4 f3be 627f 4e3e 4898 903f 6d59 0840
000003d0: 629f 603e 7316 51bf 35dd 1bbf 82ca 493d
000003e0: 9fbb 05bf 53a8 623e fe69 053f f022 143f
000003f0: 2090 ec3e 07aa 25be 1182 eebe f81c bcbe
0.2740432 -2.2709615 -0.39420712 1.207209 0.167115 0.3846385 -0.6472828 -1.2499686
-1.1738786 -0.5829237 -0.20082486 0.03990742 -0.05674104 -0.21864243 -0.16979629 0.124972664
0.27550474 -0.30826223 0.040874127 -0.37705675 0.45183045 -0.45128134 0.09078882 -2.1537466
-0.4114065 0.60084015 -0.22089268 -0.12010042 0.5668389 1.0812132 -0.40332094 -0.5699204
0.12310011 0.2199658 -0.17964196 0.22016156 -0.14976658 -0.095523916 -0.054811936 0.1082638
0.5986605 -0.28602895 0.3021636 -1.3214023 1.3723004 -0.14512818 0.089770645 -0.474219
-0.53014827 1.4789044 0.727402 0.9851031 0.0106726065 -0.6990942 -0.49471262 -0.33835483
-0.10460156 -0.3338697 -0.3046278 0.25783053 -0.41642055 0.23575065 -0.15359852 0.21755181
-0.078715995 -0.6547942 1.4026494 0.6572503 -0.06960675 -0.3749728 0.04315764 -1.0465832
-0.4051609 -0.788993 -0.2083578 0.42310402 0.46438643 -0.70626956 -0.27358586 -0.15704171
-1.1604329 -0.50781447 0.07771375 -0.2696212 0.3292531 -0.66501456 0.31820244 0.24361078
-0.030660423 0.08766928 0.37077346 0.075877264 -1.169327 -1.5351092 1.4908569 0.36684367
0.5532284 -0.15250866 -0.0058022314 -0.26586622 0.08021647 -0.342802 -0.40948072 -0.47594762
0.38439927 -0.041477397 -0.2321379 0.15095566 -0.5455843 0.04984766 0.7047963 -1.0266427
1.5358593 -0.6513914 -0.096259296 1.4154571 0.655923 0.22378775 0.012392647 0.55400026
0.11332923 0.09879613 -0.049807485 -0.28724897 0.039000556 -0.2126298 0.05972291 -0.16952637
-0.0832466 0.13503122 -0.30317453 -0.060368463 -0.5212256 -2.0054805 0.58372015 -0.4808697
0.667492 -0.63746434 1.3515337 0.6065751 0.48953843 -0.13776103 0.14292863 0.09596087
-0.7607459 -0.5290404 -0.11877911 -0.48795298 -0.5499788 0.07365058 0.07446019 0.23349427
0.107070945 0.20954786 -0.60782856 0.79413635 -0.72475445 0.8317295 1.4146966 -0.13080437
0.30271342 0.049284622 0.735208 0.5209145 0.1441771 0.119178586 -0.6825417 0.42207772
-0.22204442 0.32588607 -0.99764997 -0.31652158 -0.15993878 -0.050992526 0.13169543 -0.83807456
0.0014523374 -1.1176329 1.0964475 0.7193995 0.5273162 -0.56826884 -1.1701044 -0.42635152
-0.60862577 -0.09670053 0.092076845 -0.071282856 -0.7522095 -0.35182092 -0.7427549 0.16843428
-0.5782541 -0.50660384 -0.47948903 -0.5081919 0.3812013 0.4992887 1.969898 -0.024793595
0.65330213 -0.27078095 -0.14996916 1.5961107 0.61911994 -0.17048647 -0.7216284 -0.3238117
-0.42762494 -0.21683364 0.18989809 -0.06928665 -0.3110058 0.171557 -0.41854 0.21249974
-0.20760189 0.2092147 0.015090292 -0.8229158 0.30246693 -0.4029873 0.014775447 -0.36278158
-0.3423325 -0.08884252 1.7242224 0.8781145 0.37470365 0.40407744 -0.32810056 0.1910266
0.12885684 0.03580717 0.20623699 0.20354214 -1.0818992 -1.2847087 -0.039718866 0.079682164
-0.47586542 0.2016578 1.1296473 2.130458 0.219358 -0.8167488 -0.6088441 0.049265392
-0.5223941 0.22134523 0.52114856 0.5786581 0.4620371 -0.16178142 -0.46583608 -0.3674085

bias f4 [64]
00000000: f196 41be a7fa 6dbe f63b 3bbf 60ed 06be
00000010: 15f2 f5bd 0744 46bf d823 463d e952 0dbe
00000020: 82d9 5a3d 8f01 6a3e b36e bdbe 9a64 14bd
00000030: 8e56 1c3e 5da9 1ebe face 8f3d 6120 263f
00000040: b9b8 8c3e 2d8d 933e 51ef 2e3e 3890 7bbe
00000050: 23b5 b2be b406 3d3d e8e4 383e dbfb b93e
00000060: 1efe 593e 8daa f5bc 56a2 6d3e 592a 1b3f
00000070: 67e9 dabd 7728 a0be 6862 733e 31e6 a2bf
00000080: abcf 1f3e 4dd8 3c3f 6dcd f33e a1bf 1dbe
00000090: b8a8 ff3e 57e2 39bf b799 2e3e 9d31 173f
000000a0: 8d42 13be a00b 813e 894d 743f abaa 00bf
000000b0: d865 40be 504b 1d3e 1cf5 2a3f c9e1 19bd
000000c0: 2ee1 0d3e 19d9 53be 3781 57be 8b99 283e
000000d0: 3026 e0be 0637 b53e 0ebf eabd 0506 e7be
000000e0: 2a3f 34bc 75b8 dd3d b878 5abd 704a 0a3e
000000f0: 454b a1bd 4509 2c3e f68f 89be a90b 9a3f
-0.18905236 -0.23240148 -0.7313837 -0.13176489 -0.12009064 -0.7744755 0.048374027 -0.13801159
0.053430088 0.22852157 -0.3699852 -0.036228754 0.15267393 -0.15494294 0.070218995 0.64893156
0.27484682 0.28818646 0.1708348 -0.24566734 -0.3490382 0.04614897 0.18056071 0.36324963
0.21288344 -0.029988552 0.23206457 0.6061149 -0.10689049 -0.31280872 0.23768008 -1.2726499
0.15606563 0.7376755 0.47617665 -0.15405132 0.4993341 -0.7261099 0.17050825 0.5906008
-0.14380856 0.25204182 0.9543081 -0.5026042 -0.1878885 0.1536076 0.6678026 -0.03756884
0.1385543 -0.20688285 -0.21045385 0.16464822 -0.43779135 0.35393542 -0.11462222 -0.4512178
-0.011001388 0.10826198 -0.053337783 0.13504958 -0.07875685 0.16800411 -0.26867646 1.2034808

weight f4 [64]
00000000: 7c8c 773f fec7 813f 3aa7 6f3f 2107 913f
00000010: 6354 863f 3081 8a3f 4de3 733f 5892 613f
00000020: 6659 813f ff24 9f3f 1afc 903f 1e06 673f
00000030: 64fc 843f 475b 8d3f 5709 8a3f 10d9 bc3f
00000040: f3af 893f 62ce 8b3f 50fb 6e3f 18c2 733f
00000050: 9f39 683f af15 8e3f 94a3 943f 22d2 7e3f
00000060: a1ac 983f d43c 5a3f ad6d 693f 2382 9d3f
00000070: 0a65 873f 7799 823f 24af 9d3f d5dc 953f
00000080: ac26 953f 2922 8b3f e7d0 7a3f 1ca2 8b3f
00000090: 22d4 9a3f 69f6 8d3f 5bd8 953f 6bc3 6d3f
000000a0: b705 793f 9118 ac3f 0a32 8a3f 907e 653f
000000b0: 811c a33f 3bf6 813f c730 923f fb9e 863f
000000c0: 5fee 723f 44cf 923f 9b47 843f 12a2 8e3f
000000d0: acf8 833f 6f1d 983f 1599 6c3f 489e 8d3f
000000e0: 9874 963f 4f7f 8b3f 4052 8f3f a02d a03f
000000f0: 9e6c 7b3f 04e4 a43f 6cc5 763f b49f 883f
0.9669874 1.0139158 0.9361454 1.13303 1.0494503 1.0820675 0.9526871 0.8811393
1.0105407 1.2433165 1.1326935 0.9024371 1.0389524 1.1043481 1.07841 1.4753742
1.075682 1.0922358 0.9335222 0.9521804 0.9071292 1.1100367 1.161242 0.9953939
1.1927682 0.85249066 0.91182977 1.230534 1.057771 1.0203084 1.2319074 1.1708018
1.1652427 1.08698 0.9797501 1.0908847 1.2095988 1.1090823 1.1706651 0.9287631
0.97274345 1.3444997 1.0796521 0.89646244 1.2743074 1.0153269 1.1421136 1.0517267
0.94894975 1.1469502 1.0334352 1.114321 1.0310264 1.1883982 0.92421085 1.1063929
1.1754332 1.0898226 1.1196976 1.2513924 0.9821261 1.2882085 0.9639499 1.0673738

bias f4 [64]
00000000: 74fc f7be f784 58be 93e2 c7be 1dd5 a5be
00000010: 0c69 51bd 8512 95be b5c3 1dbf 8e4c a2be
00000020: 3442 02bf 54c6 d5be 805a acbe 1062 d4be
00000030: 0db6 b7be 7ac8 1fbf b433 c7be d86b c8be
00000040: 7437 873d 2cf9 ecbe 99bb a0be 1dea 05bf
00000050: 77b8 a7be ebb3 ccbe 7c5c 3ebe 3021 37bf
00000060: a416 a9be 9171 14bd 6166 eabe 4493 e0be
00000070: 2514 5cbe 05a8 93be 85d0 4dbf cabc f4be
00000080: b0c6 45bf f609 7bbe 98cb b7be bfd2 98bd
00000090: 89a7 f2be e693 10be d9eb afbe 6479 ebbe
000000a0: a4cb febe 89d9 86be 9383 17bf d6e6 cbbe
000000b0: b6fd cbbe d85e aebe f039 eabd 3cfb 64be
000000c0: ae56 ebbe 48a1 12bf b0f8 d6be a887 22bf
000000d0: 1d7c efbe 7589 dbbb d727 d5be 518e 163e
000000e0: 08c0 babe 9fa0 f8be a312 85be ed19 c8be
000000f0: 7fa7 05bf f6de 3dbe e6ed bfbe ac2c b9be
-0.48434794 -0.21144472 -0.3904005 -0.32389155 -0.05112557 -0.29115692 -0.6162675 -0.31699032
-0.5088227 -0.41752875 -0.33662796 -0.41481066 -0.3588108 -0.6241528 -0.38906634 -0.39144778
0.06602374 -0.46283853 -0.31393126 -0.52310354 -0.32757923 -0.39981017 -0.18589967 -0.71535015
-0.33025086 -0.036241118 -0.45781234 -0.43862355 -0.2149206 -0.28839126 -0.803963 -0.47800285
-0.772563 -0.24515519 -0.35897517 -0.074620716 -0.47393444 -0.14118919 -0.34359625 -0.4599105
-0.4976474 -0.2633784 -0.5918514 -0.3982455 -0.39842004 -0.34056735 -0.11436832 -0.22361463
-0.4596457 -0.57277346 -0.41986609 -0.63488245 -0.46774378 -0.0066997358 -0.41631958 0.14702727
-0.36474633 -0.48560044 -0.2599078 -0.3908228 -0.52208704 -0.18542084 -0.3748619 -0.36166894

running_mean f4 [64]
00000000: dcb5 44bf 71fa 58bf 1edd 8a3e dd0e 07bf
00000010: f362 8cbe ab99 923f a79e 9fbe 99fe 073e
00000020: b7f4 02bd c206 ea3f 40c7 b3bd 899c 3a3f
00000030: 8455 0b3f 7fb2 2bbf 2a0d 74bf 58b9 b03f
00000040: 50f2 c4be 01c9 0040 2132 933f e7ba 8bbf
00000050: f532 68bf df7f d53d 8978 8cbe 24e9 0540
00000060: dbc8 0cbf d3a7 6fbe 94fa 493f 4591 fcbe
00000070: a3f0 ac3e c702 85bf 9f25 64bf b9c6 efbe
00000080: 049d 66bd 6ff1 39bf 61a5 003f 979f 35c0
00000090: a9c0 1340 6eb1 fabe 59bf 10be 7f1a fd3f
000000a0: e358 273e d05d a83f ee04 ef3f 80b8 723f
000000b0: d739 503f 5bb5 763f 612f 56bf dbc4 2cbf
000000c0: 111f 063e 0c0c 5fbf b7d5 98bf 3a15 9bbd
000000d0: 9650 213f 48e6 fa3f 7130 9abf 2a55 0abf
000000e0: 4ac5 af3f b80d 8bbf 416c dfbd cba8 653f
000000f0: c087 263e 54bc 9dbf c67b 2bbf 203f ed3f
-0.76839995 -0.84757143 0.27121824 -0.52757055 -0.27419242 1.1453146 -0.3117573 0.13280715
-0.03197166 1.8283312 -0.08778238 0.72895104 0.5442736 -0.6706924 -0.95332587 1.3806562
-0.3846612 2.0122683 1.1499673 -1.0916413 -0.90702754 0.1042478 -0.2743571 2.0923548
-0.5499398 -0.23403864 0.78897977 -0.49329582 0.3377734 -1.0391473 -0.89119905 -0.468313
-0.056302086 -0.72634023 0.5025235 -2.8378656 2.308634 -0.48963493 -0.14135493 1.9773711
0.16342501 1.3153629 1.867338 0.94812775 0.81338257 0.96370476 -0.83666044 -0.6748788
0.13097788 -0.8712776 -1.194022 -0.07572408 0.6301359 1.9601526 -1.2046033 -0.540362
1.3732083 -1.0863562 -0.1090932 0.8971068 0.16262722 -1.2323098 -0.6698574 1.8534889

running_var f4 [64]
00000000: 47ee 603e 4fb0 743e 8c69 663e adf9 c03e
00000010: 9792 623e 19c8 e73d df59 483e 9dcd 773e
00000020: eded 973e 4e20 793e bd00 bb3e adbe 553e
00000030: e168 8b3e f92c 263e 2bd8 b43e 52dc 853e
00000040: a4d8 593e 3f2e 353e e136 6c3e ee08 813e
00000050: 2364 9c3e 5774 9d3e fe63 313e 5d4e b43e
00000060: 184b 8a3e 469c a63e 3a7e 7f3e 3f36 5f3e
00000070: 7b25 423e 2077 673e d0cd 7a3e b438 483e
00000080: b91c 963e f4d5 833e e056 d93e e10e bd3e
00000090: 9a39 9f3e 1cc6 413e bee9 473e b494 2f3e
000000a0: 89a8 a33e de93 883e e5fc a53e e6b8 ae3e
000000b0: cdfe 3f3e d05b 403e bd1d 543e ef76 073e
000000c0: 4832 623e 43c0 f83d 4d9a 8f3e c003 8d3e
000000d0: 2494 db3e 0c48 e53e 1ba2 743e b234 973e
000000e0: 3e2d 583e 5560 343e d8e9 7e3e d6fa 8f3e
000000f0: b12e ae3e 002b 473e 667a a23e b76f 623e
0.21965896 0.23895381 0.225012 0.37690488 0.22126232 0.113174625 0.19565533 0.24199529
0.2967371 0.2432873 0.36524 0.20873518 0.27228454 0.16228093 0.35321173 0.26144654
0.21274048 0.17693423 0.2306781 0.25202125 0.30545148 0.30752823 0.173233 0.35216036
0.27010417 0.32541102 0.24950495 0.21798037 0.1895961 0.22604036 0.24492574 0.1955288
0.2931879 0.2574917 0.42449093 0.36925414 0.31098634 0.18923229 0.1952276 0.1714657
0.3196452 0.26675314 0.32419506 0.3412544 0.18749543 0.18785024 0.20714469 0.13228963
0.22089493 0.12146046 0.2804741 0.27541924 0.4288646 0.4478153 0.23889963 0.2953239
0.21111009 0.17614873 0.24893892 0.2812106 0.34019998 0.19449997 0.31734008 0.22112928

weight f4 [3, 64]
00000000: 0c16 7dbf 69fc 94be 79d7 00bf 7918 803f
00000010: 741d 67bd d8fe 52bf a9a1 5b3f 8bea 5b3e
00000020: bd2d 8f3f 928f 953f 9c68 0a3f b6ab eebd
00000030: e22b 84bf f2df 623f a20f 6fbf 9189 be3f
00000040: d186 2e3f f70b 933f e351 c83e 7f3c 89be
00000050: 6c99 05bc 6b51 4abe 21ca 69bf aa40 b6bf
00000060: af30 903f 9187 be3e c41b 5f3f 53f1 853f
00000070: ed28 133f 9d9f fb3d 24c3 583f f18e 9dbf
00000080: b001 bfbf 905a 863e 6e21 9f3f d198 863e
00000090: 982c 85bf a5ea 3bbf f7e8 97bf 61b6 80be
000000a0: 2a08 fc3e 70a9 8dbf a1fc 8b3f 7ac0 2a3f
000000b0: b4ef abbf 6b58 0d3f 8ada b73e 3d7e 58bf
000000c0: 5422 263d d815 af3f ef02 f53e 496f 9f3f
000000d0: 00d5 96bf 5c7d 5bbf 9d57 92bd 4df8 34bf
000000e0: 658b 913f 336c 90bf e041 54bf 4ee0 893f
000000f0: 2e78 6e3f f239 00bf 148c 32bf 5edb 8cbf
00000100: 1d1c 29bf d0d8 613f 17a3 703f fafe 36bf
00000110: e36b 39bf 1f66 6fbe 620e b53e b105 59bf
00000120: d345 5b3e 40dd 25bf 532a e63e 1574 493f
00000130: 9640 be3e 6c29 8cbd 769a 433f 849b bdbe
00000140: 70b3 d0bd b13b 563e f2cf 59bf 696a 59bf
00000150: df21 3b3f 6fe6 7d3f 7255 96bd 1e35 4b3e
00000160: 36a8 32be 7830 1bbf 02ae fb3d f171 fbbe
00000170: 28b8 e03e 661d 4a3f 5a3b 7d3f 2e5e ddbe
00000180: 27e1 1b3f 0308 4ebf 18f5 113d 860c bf3e
00000190: 40b1 ff3e a2f9 eebe 965b ac3e 3745 843f
000001a0: 9c1a 97bf 017b f13e cdc3 5fbf ccea 58bf
000001b0: 1930 803e 5eb6 80bf 93b8 63bf 0388 083f
000001c0: f98d 6cbf e8e2 623d ef3d 3c3f 1528 89bf
000001d0: 8bff 1b3f 68e5 d23e 1562 5d3f 3cd6 1b3f
000001e0: 2c0c 5cbc 9a46 e2be 1099 7d3f ecc5 c2bd
000001f0: ca35 8ebf 216e febe 12b1 623f f276 05be
00000200: 90b4 8f3f 2c52 29bf 32da 22bf 5d46 95be
00000210: 956a 453f f604 623f 8884 b4bf f0b4 313f
00000220: 4932 6abf e144 10be ba88 a1bf 0fda 70bf
00000230: e7da 313f 6b10 c3bf 422f b23e 269b 46bf
00000240: e437 2ebf f197 76bf 1a09 c33e a8c1 9c3f
00000250: ae96 5cbf a5a2 78bf a098 4a3f 5f73 1a3f
00000260: 0397 41bf 8ce1 9a3e 0973 77bf 2d83 88be
00000270: 556f 57bf 00ad 73bf 264f 30c0 5835 8e3f
00000280: b645 723f d488 443f 60d8 3fbf 2893 76bf
00000290: 1b5b 9c3e 0307 5f3f 9e59 dd3e 3524 5ebf
000002a0: 6438 503f 1b4f 953e 34be 21be 4040 453e
000002b0: 07ac 0c3f f51e 093f 5589 3e3f 9e27 853e
000002c0: 755f 6e3f 6543 b9bf 2ad4 9ebf df9d dbbc
000002d0: 0d2a 513d aada e33d d60c 70bf b5d2 83bc
000002e0: 96c4 2bbf 5f40 8a3f 4411 f5be ac3a 25bf
000002f0: d63e c23e ea76 833f 095f cabe daa0 7b3f
-0.98861766 -0.29098824 -0.50328785 1.0007468 -0.056424573 -0.8242011 0.8579355 0.2147619
1.1185833 1.1684439 0.5406587 -0.11653845 -1.0325892 0.88622963 -0.9338323 1.4885732
0.68174464 1.1488026 0.39124975 -0.26803967 -0.008154254 -0.19757621 -0.9132405 -1.4238484
1.1264857 0.37212804 0.8715174 1.0464271 0.5748432 0.12286303 0.8467276 -1.2309247
-1.492239 0.2624097 1.2432077 0.26288465 -1.0404234 -0.73404914 -1.186797 -0.25139144
0.4922498 -1.1067333 1.0936471 0.66699946 -1.3432527 0.5521304 0.3590892 -0.84567624
0.04056008 1.3678541 0.478538 1.2455837 -1.1783752 -0.8573816 -0.07145617 -0.70691377
1.1370665 -1.128302 -0.8291302 1.0771577 0.9315213 -0.5008842 -0.6974499 -1.1004446
-0.6605852 0.88221455 0.93998855 -0.71482813 -0.7243025 -0.233788 0.35362536 -0.8477431
0.21413355 -0.64790726 0.44954166 0.7869275 0.3715865 -0.06843838 0.76407564 -0.37032712
-0.10190475 0.20921208 -0.85082924 -0.84927994 0.7309856 0.9917974 -0.07340516 0.19844481
-0.1744698 -0.6062083 0.12289049 -0.49110368 0.438905 0.7895111 0.9891869 -0.43235916
0.6089043 -0.80480975 0.03563413 0.37314242 0.4993992 -0.4667483 0.33663625 1.0333623
-1.1804996 0.47164157 -0.87408143 -0.8473327 0.25036696 -1.0055654 -0.8895351 0.5333254
-0.92404133 0.055392176 0.73532003 -1.0715357 0.609368 0.41190648 0.86477786 0.6087377
-0.013430636 -0.4419449 0.9906168 -0.09510407 -1.1110165 -0.49693397 0.8855144 -0.13033655
1.1226978 -0.6614101 -0.6361419 -0.29155245 0.77115756 0.8828882 -1.4102945 0.69416714
-0.9148298 -0.14088775 -1.2619851 -0.9408273 0.69474643 -1.5239385 0.3480168 -0.7758049
-0.6805403 -0.96325594 0.3809288 1.2246599 -0.8616742 -0.97123176 0.7913914 0.6033229
-0.7562105 0.30250204 -0.96659905 -0.2666258 -0.84154254 -0.9518585 -2.7548308 1.1110029
0.9463762 0.76771283 -0.7493954 -0.9631829 0.30538258 0.87120074 0.43232435 -0.86774
0.81336045 0.29161915 -0.15795213 0.1926279 0.5494999 0.5356286 0.744283 0.26006788
0.93114406 -1.4473692 -1.2408497 -0.026808677 0.051065493 0.11125691 -0.93769586 -0.016091684
-0.6709684 1.0800894 -0.47864735 -0.6454265 0.37938565 1.0270665 -0.3952563 0.98292315

bias f4 [3]
00000000: 165e 86bd 1cb9 eebd e351 5c3e
-0.06560914 -0.116564006 0.21515612
