DataProcessing&Analysis/model_baseline.pth (torch, 12567 bytes, 8 tensors)

weight f4 [64, 22]
000000 d2 5b 03 3f f0 43 e1 3f c7 cb 00 be 5b 65 51 bf
       0.5131198 1.7598858 -0.12577735 -0.8179528
000010 bc 0a b7 be 2a 92 2e bd af cf af 3f 95 ad 20 3f
       -0.35750377 -0.04261986 1.3735255 0.62764865
000020 dc f7 09 3e ad 10 d3 3e 15 d3 25 bf 7e 97 b0 bb
       0.13473457 0.4122366 -0.6477521 -0.005389153
000030 62 84 42 3e 22 33 51 bc 69 47 d3 be c7 b4 4a 3e
       0.18995813 -0.012768539 -0.4126542 0.19795524
000040 0d c2 a0 3e 73 c7 85 bf 2e 9c d1 bc 04 68 ae be
       0.3139805 -1.0451492 -0.025587168 -0.34063733
000050 c5 e6 52 3e db 71 e4 bd f0 a1 f6 3f ec 14 95 bf
       0.20595844 -0.11154529 1.9268169 -1.164701
000060 81 ed 74 3e 92 af 82 3f 20 63 9e bd a2 c0 41 3d
       0.23918726 1.020983 -0.0773375 0.04730285
000070 fa 17 82 3e f3 5d 5c be ff f8 84 bf 47 7f 94 3e
       0.25408918 -0.21520214 -1.0388488 0.29003355
000080 f5 75 b4 be 6d 0e e3 bd ce a3 cd bd 87 32 e7 be
       -0.35246244 -0.11086736 -0.10041009 -0.45155737
000090 26 dd ac bd 7a 74 17 3d 06 d9 c3 3e ba 54 87 bd
       -0.08440618 0.036976315 0.38251513 -0.06607957
0000a0 16 40 94 3e 48 5f 6a 3e 77 e2 8a 3d 28 db 95 be
       0.28955144 0.2288791 0.06781476 -0.29268765
0000b0 8e 6c 8a 3f 5f 69 dd be 04 78 06 bf b5 8a 88 3e
       1.0814378 -0.43244454 -0.5252688 0.26668325
0000c0 86 6a a8 3e b4 12 42 3f e8 eb b3 bf 54 d1 5a 3d
       0.3289377 0.7580979 -1.4056368 0.053422287
0000d0 9f 1d 6a bf 94 af 32 3f a3 31 04 3e 8d 3e 7b be
       -0.9145145 0.6979916 0.1290956 -0.2453558
0000e0 c4 50 1d 3e 93 4c 4a bf b7 b9 81 be 6d fd 72 bf
       0.15362841 -0.79023093 -0.25337002 -0.9491795
0000f0 73 78 b8 3e 71 94 a2 be 02 6f 47 3c dc a6 80 3d
       0.36029395 -0.31753877 0.012172462 0.06281826
000100 d0 08 b9 3e 0c b0 5e bf a8 0f 1d 3f b1 a7 cd 3f
       0.36139536 -0.86987376 0.61352015 1.60668
000110 21 6d ec 3e ce 72 be 3f 02 8c 41 bf 0d cf a8 3f
       0.4617701 1.4878786 -0.7560426 1.3188187
000120 ec 08 38 be ec 65 de bd e7 27 29 bf e8 d2 fe 3d
       -0.17972153 -0.10859284 -0.6607651 0.12442571
000130 62 e4 84 bd 57 d4 8f be a0 e8 e5 3c 77 31 3e be
       -0.06488873 -0.2809169 0.028065026 -0.18573557
000140 e1 93 69 be bd ba 5c be bd 1c 86 bf 8b 71 83 3d
       -0.22810318 -0.2155561 -1.047752 0.06418141
000150 ce fa 6b bd e8 12 e4 3d 51 63 8c be 6f 6e 16 3f
       -0.057612233 0.111364186 -0.27419522 0.5876226
000160 43 6a 14 bf c1 e6 21 c0 65 1d 89 bf 99 ea 70 3e
       -0.5797464 -2.529709 -1.0712095 0.23526992
000170 ef 95 a3 3f cf c3 dc be ad c0 c7 3d 52 e7 03 3f
       1.2780131 -0.4311814 0.09753547 0.5152484
000180 6b ff 38 be 56 60 72 3e 86 ef c6 3e 1d 2f 5e 3e
       -0.18066184 0.23669562 0.38854617 0.2169766
000190 04 14 50 be 66 b1 53 bf ea f7 d3 be 8c e4 4c bf
       -0.20320135 -0.82692564 -0.4140008 -0.80036235
0001a0 32 c9 17 3d 86 48 9e be d6 ea 3a bf df 0c c0 3d
       0.03705711 -0.30914706 -0.7301458 0.09377455
0001b0 d3 37 49 3d ff b1 cc be 78 a3 54 bf 67 ef b3 bf
       0.049125504 -0.3997955 -0.83061934 -1.4057435
0001c0 e0 41 2d 3f d7 95 b7 bd 16 5a 02 3d 6e f5 aa bc
       0.6767864 -0.089641266 0.031824194 -0.020868983
0001d0 23 bd 8f 3f 9a c4 ec bf fc 40 bc be 4e 53 10 3e
       1.1229595 -1.8497498 -0.3676833 0.14094278
0001e0 ef 60 b7 3e 71 1a 08 3e c3 2f b6 3d 61 af 1d 3e
       0.35816142 0.13291337 0.088958286 0.15398933
0001f0 de 91 70 bf 70 35 ed bb 6e 82 c8 bd bf 0d 9a be
       -0.93972576 -0.0072390363 -0.097905025 -0.30088612
000200 7e 76 f3 bd 89 c9 a9 be 1e 76 ae 3d fd 26 09 bf
       -0.11887835 -0.33161572 0.08518623 -0.53575116
000210 c1 7d 6d 3f 2b b5 29 40 71 ce 99 be 33 d8 eb be
       0.9277001 2.6516826 -0.30040315 -0.46063384
000220 f4 d4 59 bf 70 5b 93 3b 30 c8 a1 bd a0 ea 9f 3e
       -0.85090566 0.004496984 -0.07899511 0.31233692
000230 f1 81 5a be 07 a1 eb 3e 06 e6 11 bf 75 11 1d be
       -0.21338631 0.46021292 -0.5699161 -0.1533869
000240 5b 44 52 bd 52 86 aa be e3 3b b6 be 5f f9 68 bf
       -0.05133472 -0.33305603 -0.35592565 -0.9100551
000250 89 6a a9 be a3 5b 19 3f 9d 9d 90 be 47 55 aa 3c
       -0.33089092 0.5990545 -0.2824525 0.020792617
000260 20 92 94 bd f6 29 04 3e e1 4e ff 3d e7 86 0f c0
       -0.07254434 0.12906632 0.12466217 -2.2426088
000270 73 43 ac 3e 45 8b d2 3e 11 c8 af bb d9 91 5a bf
       0.3364521 0.4112188 -0.005364426 -0.85378796
000280 46 75 84 3f 74 23 7e 3f 28 d9 0c 3e 3d d9 08 3f
       1.0348289 0.9927285 0.13754714 0.5345648
000290 be 75 07 3e 2a d7 3c 3e f5 e7 0f 3e 28 72 7a bf
       0.13228509 0.18441454 0.14053328 -0.9783044
0002a0 d4 23 f8 be b2 d1 d7 bd f5 65 8f bd 34 1c 8d be
       -0.48464835 -0.10538043 -0.07001869 -0.2756058
0002b0 b3 58 e3 be 4c 72 91 3e ea fd e0 3c 53 8c e4 be
       -0.4440361 0.28407514 0.027464826 -0.4463831
0002c0 b9 a1 c9 be 7f 91 ec bf d2 63 60 ba 82 34 b7 bd
       -0.39381197 -1.8481902 -0.0008559796 -0.08945562
0002d0 3c 21 55 3f 56 f5 4f 3f dc 42 8f 3e fc 37 2e be
       0.83253837 0.8123373 0.27980697 -0.17013544
0002e0 81 e8 62 3f bd fc 65 bf 37 55 8b be 97 e5 32 be
       0.8863602 -0.89838773 -0.2721345 -0.17470394
0002f0 39 48 87 3d de bf 20 bf 93 6b f2 be db 8d 23 be
       0.06605572 -0.62792766 -0.47347698 -0.15972082
000300 d6 5d a6 3e a3 20 c3 be 0e 55 cb be 23 db 38 be
       0.32493466 -0.38110837 -0.3971333 -0.18052344
000310 28 67 14 3f a0 e9 8b 3e 7e ab 00 3f 32 20 96 be
       0.57969904 0.2732668 0.50261676 -0.29321438
000320 4c 70 a8 3f c6 4e 07 bf 2d 4f d1 3e ea f0 a5 3f
       1.315927 -0.52854574 0.4088072 1.2964146
000330 11 1a 85 3e 11 ed 6c bf d4 02 ac bd 75 e1 36 bf
       0.2599645 -0.92549235 -0.08398977 -0.7143777
000340 78 02 3b bf 16 fe e3 3e 3c 63 f1 3c 3b 8e 81 be
       -0.7305064 0.4452979 0.029466264 -0.25303826
000350 f4 4d a7 3b 46 c4 39 bf 7c 0f b2 be 39 ce 2d bf
       0.0051057283 -0.72565114 -0.3477744 -0.67892796
000360 a6 47 3e bf 83 e8 84 3e 0d fb d0 3e 40 1c b7 be
       -0.74328077 0.25958642 0.40816537 -0.3576374
000370 ab 73 a9 3f 8f a2 0a 40 fe e5 7c bf a8 3e 3c 3d
       1.3238424 2.1661718 -0.9878844 0.04595819
000380 dd 65 fc be 2d 44 25 bf 87 cc 8c 3e 84 a8 96 bf
       -0.49296466 -0.64557153 0.27499792 -1.1770177
000390 bc 70 f4 bd ec 49 bb 3e da 5e 32 3e df aa 1c bf
       -0.11935565 0.36579835 0.17418995 -0.6119823
0003a0 c0 eb 8b bf 91 93 6d bf a6 ee d2 3d e9 d3 cf be
       -1.093132 -0.92803293 0.10299425 -0.40591362
0003b0 b9 50 f2 3d 75 dd 34 3e 59 59 0a 3e e6 02 ea bd
       0.11831803 0.17662604 0.13510646 -0.11426334
0003c0 86 8f b5 bd 43 5e bc 3e fb 9e 1b 3f ba 5e 6c be
       -0.088652655 0.36790666 0.6078946 -0.2308301
0003d0 14 73 a6 bf 71 e7 88 3f c2 1e 1c bf c5 08 00 40
       -1.3003869 1.069563 -0.6098443 2.0005352
0003e0 87 5a e1 be 8e c2 4a 3e 90 54 f3 bd 65 4a 6f bf
       -0.4401438 0.19800779 -0.118813634 -0.9347289
0003f0 e4 44 58 be 27 6a d8 bd a5 05 97 be 13 93 ff be
       -0.2112003 -0.10567122 -0.29496494 -0.49916896

bias f4 [64]
000000 8e 54 31 3b 03 33 b1 bd 62 e4 cd 3e bb 10 61 3f
       0.0027058455 -0.08652308 0.40213305 0.87916154
000010 94 b6 31 bc 74 a1 12 3d 89 ac 84 3c bb a4 02 3f
       -0.010846753 0.035798505 0.016195552 0.5103261
000020 8f e7 c0 3e 0d 50 55 3e f9 a9 37 bf f1 86 8e be
       0.37676665 0.20831318 -0.7174373 -0.27837327
000030 8e 23 cd bd d5 6b 4e be 9c 9c a8 3e 49 b6 9b 3e
       -0.10016547 -0.20158322 0.32931983 0.3041251
000040 6f 80 ec 3e be 95 86 be 67 66 3b 3e be a0 a7 be
       0.46191737 -0.2628612 0.18300782 -0.32739824
000050 da 3c 19 3e 41 6d 1c bf 0f 07 45 be 37 8e cc be
       0.1496462 -0.6110421 -0.19240974 -0.3995225
000060 48 37 03 be 03 23 01 3e 26 d0 c4 3e 56 12 48 3e
       -0.12814057 0.12611012 0.38440055 0.19538245
000070 99 78 1c 3f ea 02 3a 3f a7 a9 ad be 71 5b 73 bd
       0.6112152 0.72660697 -0.33918497 -0.059413377
000080 ef 97 33 be 05 34 9d 3e ad df e6 3e fa eb 9f 3e
       -0.17538427 0.3070375 0.45092526 0.31234723
000090 cd 14 09 3f 9d bc 07 3f e4 13 11 3f 79 b2 e5 3e
       0.53547364 0.53022176 0.56670976 0.44862726
0000a0 26 74 34 bd ec 0f 8d 3e 7a c8 a2 bb 41 57 be bf
       -0.04405608 0.2755121 -0.0049677463 -1.4870378
0000b0 d8 75 f3 3e 7c 9f 58 be 9d d6 0f bd 0e 40 bc be
       0.47550845 -0.21154588 -0.03511678 -0.3676762
0000c0 44 1d ee bd e9 ee 12 3f 46 00 f4 3d a3 ee 2e 3f
       -0.11626676 0.573958 0.11914115 0.6833288
0000d0 92 a0 ab bd 26 cb 89 be 5c ae 4e 3f e1 58 b3 be
       -0.08380236 -0.26912802 0.807348 -0.35028747
0000e0 18 2d fa 3e 96 08 63 3d d6 f3 34 3f 9c d6 55 be
       0.4886253 0.05542811 0.70684564 -0.20882648
0000f0 77 87 bb be bc a2 4a 3f bb c1 4b 3e d7 d5 85 3e
       -0.3662679 0.7915456 0.19898121 0.2613971

weight f4 [64]
000000 a7 2b 91 3f 1e 3b 83 3f 82 e3 6c 3f d1 05 ab 3f
       1.1341447 1.0252416 0.9253465 1.336115
000010 5b 22 79 3f b1 31 81 3f f2 51 89 3f 74 b8 8e 3f
       0.9731805 1.009329 1.0728133 1.1150041
000020 53 ef 6d 3f ff 41 66 3f c1 bc 87 3f f0 43 80 3f
       0.92943305 0.8994445 1.0604478 1.0020733
000030 71 af 83 3f 64 f6 77 3f 70 46 94 3f b4 10 9e 3f
       1.0287915 0.9686034 1.1583996 1.2348847
000040 5c 0f 85 3f e2 49 82 3f 9b 12 89 3f 94 4e 83 3f
       1.0395312 1.0178797 1.0708803 1.0258355
000050 69 d2 94 3f 8f 77 82 3f 87 69 8b 3f d5 15 88 3f
       1.1626712 1.0192736 1.0891579 1.0631663
000060 d0 24 8f 3f 56 f1 82 3f 22 b8 71 3f 9c b2 91 3f
       1.1183109 1.02299 0.9442159 1.1382632
000070 ef 24 9b 3f 06 01 80 3f c1 6a 8c 3f 6b ae 87 3f
       1.2120646 1.0000312 1.0970079 1.0600103
000080 c2 6e 86 3f b8 32 a2 3f 1c 2e 82 3f b5 da 89 3f
       1.0502551 1.2671728 1.0170321 1.0769869
000090 99 e6 70 3f af 86 9e 3f 29 99 8a 3f e2 19 64 3f
       0.94101864 1.2384852 1.0827991 0.89101994
0000a0 1a a7 8c 3f 7d 94 83 3f 13 a9 88 3f fb 8d 91 3f
       1.0988495 1.027969 1.0676597 1.1371454
0000b0 f1 2e 82 3f 5c 38 78 3f 27 7b 89 3f fa 20 89 3f
       1.0170575 0.96961 1.0740708 1.0713189
0000c0 00 01 73 3f ca 5d 75 3f 96 d3 82 3f 2e 4a 81 3f
       0.949234 0.95846236 1.0220821 1.0100763
0000d0 1c 75 5b 3f 64 9f 9a 3f 66 c0 8c 3f 4d b6 98 3f
       0.8572557 1.2079892 1.0996215 1.1930634
0000e0 15 7d 86 3f a9 85 8a 3f 04 04 71 3f 97 89 65 3f
       1.0506922 1.082204 0.9414675 0.8966307
0000f0 85 08 8d 3f 49 ff 9d 3f 2a 48 71 3f 2a bb 9a 3f
       1.1018225 1.2343532 0.9425074 1.2088368

bias f4 [64]
000000 ce 30 8d be 4c 60 02 bf 42 0a c2 be ec 22 8b be
       -0.27576298 -0.5092819 -0.3789845 -0.2717508
000010 83 db c7 be 25 f4 c9 be 25 a0 e4 be c6 3c 55 bd
       -0.39034662 -0.3944408 -0.4465343 -0.05205991
000020 3a 38 ed bd 58 21 07 bd c9 ad 91 be 30 c4 d7 be
       -0.1158299 -0.032990783 -0.284529 -0.42141867
000030 c3 99 18 bf c1 08 39 be 3a 2a 3c be b3 aa 74 bd
       -0.5960962 -0.18069746 -0.18375483 -0.059733104
000040 3f c0 e5 be 0d 9c 1a bf 5d d2 26 be 27 04 00 bf
       -0.44873235 -0.60394365 -0.16291185 -0.50006336
000050 63 a7 c1 be f0 30 e2 be d5 72 80 bd 9c ee 86 be
       -0.37823018 -0.4417796 -0.062719025 -0.2635392
000060 cc ab 29 bf a6 3c f9 be 9a 2a 08 bf 3a 6b 76 be
       -0.66277766 -0.48679084 -0.53190005 -0.24064341
000070 d2 d9 05 bd 43 13 e7 be 8f 57 c6 be 46 e0 b4 be
       -0.032678433 -0.45131883 -0.38738677 -0.35327357
000080 65 16 d7 bd a3 dd 5b 3d 81 28 b3 be 43 44 98 be
       -0.10502318 0.053678166 -0.3499184 -0.2973958
000090 5a a9 0c bf db 8a 92 be 73 8d 5b be 0c f6 c4 be
       -0.5494591 -0.28621563 -0.21440677 -0.3846897
0000a0 a1 63 eb be 83 a4 97 be 15 24 54 be f0 c7 21 bf
       -0.45974448 -0.296177 -0.20716889 -0.63195705
0000b0 12 80 3d be 8a af 08 bf 56 b7 87 3d 7c d0 2b be
       -0.18505886 -0.5339285 0.066267654 -0.16778749
0000c0 34 ed 88 be d9 2c 95 be a6 81 f2 be 70 dd 93 be
       -0.26743472 -0.2913578 -0.4736454 -0.2887988
0000d0 40 12 08 bf 0f 2e 38 be f0 13 5e be 92 f0 85 3c
       -0.5315285 -0.1798632 -0.21687293 0.016350064
0000e0 27 4d cc be 98 f3 ca be 4d 60 df be 1f 7c 10 bf
       -0.39902613 -0.39638972 -0.4362816 -0.56439394
0000f0 86 9a 10 bf 74 c5 ca bc 62 c7 f2 bd 6d 42 61 be
       -0.56485784 -0.024752356 -0.118544355 -0.21997996

running_mean f4 [64]
000000 7b 6e b7 3d 51 c2 70 3f a2 09 ab 3e 60 30 39 40
       0.08956619 0.94046503 0.33405787 2.8935776
000010 4c 2d cc bf 6b 83 a0 be 18 10 0a 3e 9b a4 0f 3f
       -1.5951324 -0.31350264 0.13482702 0.56110543
000020 25 6b 0c 3f c2 a2 a9 3f 10 35 6f bf 6f d1 d4 3e
       0.5485099 1.3252795 -0.9344034 0.41566035
000030 f4 e4 ab bf 1c 70 89 bf 94 1c 6e 3e 53 b1 5b bf
       -1.3429246 -1.0737338 0.23253089 -0.8581745
000040 ba 60 38 bd 88 ea 42 3f 43 7d d3 3f c9 7d b8 bf
       -0.04501412 0.76139116 1.6522602 -1.4413387
000050 e2 80 54 bf f2 09 a6 bf fc da ee bf 2e 21 5b be
       -0.8300916 -1.2971785 -1.8660579 -0.21399376
000060 be bb eb 3d ea 91 08 40 9c 73 09 3f 4d d4 d2 bf
       0.11510418 2.133906 0.5369203 -1.6471039
000070 87 b4 95 3f 77 ca e0 3e 79 74 a4 bf e4 4a ee bf
       1.1695718 0.43904468 -1.2848045 -1.8616605
000080 de ea b6 be 10 80 b7 bd 9d d3 3c 3f 9a 30 6f 3f
       -0.35726064 -0.08959973 0.73760396 0.93433535
000090 96 3c 0f 40 05 a5 5f 3f 90 6a bd 3f 0b 54 0d bf
       2.2380729 0.87361175 1.4798145 -0.55206364
0000a0 2f 1b ef be d5 f6 43 3f 51 45 d5 3f 91 1c 8e bf
       -0.46700427 0.7654851 1.6661779 -1.1102468
0000b0 8e 38 3d 3f 10 4f 9f bf 0b ef 19 3f 6c 61 d5 3e
       0.7391442 -1.2446003 0.60130376 0.4167589
0000c0 0f 96 14 3e 8f 19 9d 3f f4 e7 92 3f 19 5d a3 3e
       0.14510368 1.2273425 1.1477036 0.31906965
0000d0 e3 94 9b bf ee 6d f1 bf 40 cf d3 be 63 33 65 bf
       -1.2154812 -1.8861673 -0.41369057 -0.89531535
0000e0 09 df 9d 3e 7b 13 c7 bf 0e b9 ab 3f 8c 76 08 bc
       0.30834225 -1.555282 1.3415849 -0.008329045
0000f0 d8 b6 80 bf e1 05 0a 40 b5 ca 05 3e c7 40 42 3f
       -1.00558 2.1566088 0.13065608 0.7588009

running_var f4 [64]
000000 66 fc 8b 3e db 5d 62 3e 72 0d 99 3e ea 56 84 3e
       0.27341002 0.22106116 0.2989307 0.2584756
000010 d8 0e 5d 3e b1 35 78 3e 2f 77 7b 3e 5e c1 4d 3e
       0.21587694 0.24239232 0.24557184 0.20093295
000020 d7 69 9c 3e 34 d3 b9 3e c0 03 a5 3e d4 2e 98 3e
       0.305495 0.36293948 0.32229424 0.29723227
000030 12 54 7c 3e 70 b2 a1 3e c2 7e 0c 3e ca 5f a2 3e
       0.24641445 0.3158145 0.1372023 0.31713706
000040 2f 9e 56 3e d3 f8 9a 3e 24 65 b1 3e cb d7 69 3e
       0.2095878 0.30267963 0.34647477 0.22836225
000050 5a 21 b7 3e 1e 8d 1d 3e 30 57 33 3e 04 1c ac 3e
       0.35767633 0.15385863 0.17513728 0.33615124
000060 35 c0 46 3e 6c 61 97 3e ec c1 64 3e 8c bb 1b 3e
       0.19409259 0.29566514 0.223396 0.15208262
000070 08 a9 d3 3e c7 9b 93 3e 61 00 97 3e b3 5d 5a 3e
       0.41339898 0.28829786 0.29492477 0.21324806
000080 ec 2a a7 3e 59 a1 46 3e 1d ee 31 3e 8a 11 8b 3e
       0.32649934 0.19397487 0.1737599 0.2716182
000090 c4 79 5a 3e 56 e7 2f 3e 17 48 1c 3e 20 83 79 3e
       0.21335512 0.17178091 0.15261875 0.24366426
0000a0 f9 2b 8d 3e fa c1 4d 3e e8 72 d4 3e 25 0a 22 3e
       0.2757261 0.20093527 0.41493917 0.15824182
0000b0 7e f9 c8 3e 37 af 70 3e 61 53 9e 3e 9f a6 63 3e
       0.39252847 0.23504339 0.30922988 0.2223153
0000c0 9f 2b 73 3e 72 b5 2b 3e 42 35 59 3e d7 ea ca 3d
       0.23747109 0.16768435 0.21211722 0.099080734
0000d0 21 56 96 3e cd ac 82 3e 78 48 69 3e 41 94 87 3e
       0.29362586 0.25522462 0.22781551 0.26480296
0000e0 40 20 d1 3e f9 31 c3 3e 29 9b 84 3e 05 e2 82 3e
       0.40844917 0.38124064 0.25899628 0.25563064
0000f0 45 12 2b 3e 68 4d 9e 3e 3a 43 7a 3e 0c e8 a3 3e
       0.16706188 0.3091843 0.24439707 0.32012975

weight f4 [3, 64]
000000 ce 75 c1 3e de ed 85 bf 99 99 cb 3e 6d 64 7a 3f
       0.3778519 -1.0463216 0.39765623 0.9780949
000010 1c 1c 77 bf 79 64 a7 be 75 59 3e bf b2 e4 18 3f
       -0.96527267 -0.32693842 -0.7435525 0.5972396
000020 99 58 15 3f 00 23 23 3f d5 bc 84 3e 44 f0 19 3f
       0.58338314 0.6372528 0.25925317 0.6013224
000030 02 00 82 bf 2a 43 e9 be bd f9 7a 3f 98 14 3e 3f
       -1.0156252 -0.45559055 0.9803732 0.74250174
000040 6b 3d 78 3f 3c e2 8e bf ba 99 4f 3f 49 93 a4 bf
       0.96968716 -1.1162791 0.81093943 -1.2857448
000050 69 4f b7 3e 82 31 58 bf dc 91 40 3f a9 d2 65 3f
       0.35802773 -0.8445054 0.75222564 0.89774567
000060 b0 b2 8e bf c9 4c 39 bf fb 0f 6d bf 61 c6 09 3f
       -1.1148281 -0.7238279 -0.9260251 0.5381833
000070 8a 68 7b bf 92 24 62 bf 93 63 36 3f 22 a1 d0 be
       -0.9820639 -0.8833705 0.7124569 -0.40747935
000080 0b 8b 6e bf 61 10 9d be e3 04 05 3f 57 ff eb be
       -0.9318091 -0.3067656 0.5196058 -0.46093246
000090 dd 3a 9d bf c7 a4 83 bf 80 02 55 3f 55 5e 8e 3d
       -1.2283589 -1.0284661 0.8320694 0.06951586
0000a0 32 92 1d bf 55 d4 88 be d5 2a f0 be b0 32 14 be
       -0.615512 -0.26724496 -0.46907678 -0.14472461
0000b0 ee e6 84 3e 24 16 d9 bc 85 98 43 bf f8 2d 05 3f
       0.25957435 -0.026499815 -0.764046 0.5202327
0000c0 23 05 0d 3f 19 20 7b 3e 67 b9 87 bf 13 2a 66 bf
       0.55085963 0.24523963 -1.0603455 -0.8990795
0000d0 2a c9 36 3f e0 8d 6b 3f 46 f8 3d bf 05 3b 47 bf
       0.714007 0.9201336 -0.7420696 -0.7782443
0000e0 5d 5c 5d 3f fe b2 ef 3e 8c 25 65 3f 0e 25 93 3f
       0.8646906 0.46816248 0.89510417 1.1495683
0000f0 49 6c 91 3f 7b 3c 4c bf b8 00 a7 3e 36 dc 58 3f
       1.1361171 -0.79779786 0.32617736 0.84711015
000100 b1 c0 0f 3f d4 19 08 3f 0f 04 5d bf 07 65 11 bf
       0.561534 0.5316441 -0.8633432 -0.5679478
000110 ff 7a cb 3e e2 49 63 bf 24 29 74 be d1 87 38 3e
       0.39742276 -0.8878461 -0.23843819 0.1802056
000120 44 b7 83 3e e9 0e d2 be 9e 41 3e 3f ba c3 1d 3f
       0.25725758 -0.41027 0.74318874 0.6162678
000130 3d e3 0a 3e ba 16 45 3f 4c 5e ef be e2 29 ed 3e
       0.13563247 0.76987803 -0.4675163 0.46321017
000140 18 cb d6 be fb fb 58 3f 41 29 08 bf 47 de e5 3e
       -0.41951823 0.8475949 -0.5318795 0.44896147
000150 2b 43 8f bf 09 ec 21 bf b9 fb 77 be 43 7f 0f bf
       -1.1192373 -0.63250786 -0.24217118 -0.5605356
000160 7d 70 7b be 7b bf 0c bf 79 a3 b2 bd a5 28 d6 3e
       -0.2455463 -0.54979676 -0.08722586 0.41827884
000170 36 d0 5c be cd 45 15 bf 65 7f a5 3e c7 d6 09 bf
       -0.21563801 -0.5830963 0.32323757 -0.5384335
000180 40 fb 44 3e 60 8d 2a bf 7a dc 34 3f d1 ee 3b bf
       0.1923647 -0.6662197 0.7064892 -0.7341128
000190 78 2a f5 3e 3a 32 17 3f f6 ef 0e 3e b0 c6 68 bf
       0.47883964 0.59061015 0.13958725 -0.90928173
0001a0 be 33 88 3f 5a e4 75 3f 5c b6 53 3f 59 1e a3 bf
       1.064079 0.9605156 0.82700133 -1.2743636
0001b0 cb 66 59 bf 5e d2 52 3f 08 2d a8 3e 1e 89 e7 3e
       -0.84922475 0.82352245 0.32846856 0.452218
0001c0 34 6e e1 3e 85 f7 65 bf c7 a1 c9 be 2d 3d f2 be
       0.4402939 -0.8983081 -0.3938124 -0.47312298
0001d0 10 dd 62 bf 6b 8f f4 3b 6b 6f 3f 3e e3 8b a6 bd
       -0.88618565 0.007463386 0.18694846 -0.0813215
0001e0 00 cf 50 bf 04 6b 2b 3f a7 ca da 3e c8 03 24 3e
       -0.81565857 0.6696017 0.42732736 0.16017067
0001f0 3b 06 49 be d5 cd 2a 3f dc 36 68 3e 23 c2 46 3e
       -0.19631283 0.66720325 0.22677177 0.19409995
000200 50 63 8b bf 27 87 1b 3e 95 63 cd 3e 4f 86 44 be
       -1.0889683 0.15188275 0.40115038 -0.1919186
000210 f8 84 23 3f 92 d7 81 3f e8 6d 8d 3f 1a 57 55 bf
       0.6387477 1.0143912 1.1049166 -0.8333603
000220 0e 39 3d bf 0e 87 db bd af 6b 81 bf 3c f5 96 bf
       -0.73915184 -0.10719119 -1.0110987 -1.179359
000230 4e c4 8a 3f da d2 b9 be 3d 20 9a be 3a f7 80 bf
       1.0841157 -0.3629368 -0.3010272 -1.0075448
000240 e1 0c 4b bf 57 ef aa 3c 97 43 24 be 6f 6f 3d 3f
       -0.79316527 0.02086608 -0.16041408 0.7399816
000250 a8 ab 52 3f d2 d8 96 3f 80 fc 47 bf a1 9b fb be
       0.82293177 1.1784918 -0.7811966 -0.49142173
000260 5b b5 b8 3f fb 5f a3 3f 31 26 9f 3f 32 30 8f bf
       1.4430345 1.2763666 1.243353 -1.1186583
000270 73 b2 45 3f a3 d2 95 3f ff f3 97 bf cc d3 8b 3f
       0.77225417 1.1704906 -1.1871337 1.092401
000280 c2 99 e9 3e 1b 50 65 3f dc 18 87 bf 48 50 84 3f
       0.4562512 0.89575356 -1.0554461 1.0337
000290 e0 3b 1d 3f 38 e0 5c 3e 9a a9 46 bf 0c d7 4a 3f
       0.61419487 0.21569908 -0.7760254 0.79234385
0002a0 fe 18 e5 be 90 cc 31 bf 1f 04 d1 be eb 28 b0 3f
       -0.4474563 -0.6945276 -0.40823457 1.3762487
0002b0 a0 fe f3 3e b1 92 7f bf 78 15 4c 3e 47 1c 82 bf
       0.476552 -0.9983321 0.19930065 -1.016488
0002c0 94 cd 51 bf e4 21 22 3f db 9d 75 3f eb 07 62 3f
       -0.8195431 0.63332963 0.95943993 0.8829333
0002d0 4c 52 8c 3d e1 e3 61 bf ef fb 81 3f 00 cc 5f 3f
       0.068516344 -0.8823834 1.0155009 0.87420654
0002e0 28 83 1f bd 28 69 a7 bf a2 f4 a2 bf e5 19 7c bf
       -0.03894344 -1.3078966 -1.2730906 -0.9847701
0002f0 c9 bf b7 bf bc 22 97 3d 44 6a 55 bf 4f 7d 84 bf
       -1.4355403 0.07379672 -0.83365273 -1.0350741

bias f4 [3]
000000 bf d4 9b be f8 a2 80 be 7d b0 00 3f
       -0.3043575 -0.25124335 0.502693
